{
  "modelTopology": "{\"class_name\":\"Model\",\"config\":{\"name\":\"model1\",\"layers\":[{\"name\":\"input1\",\"class_name\":\"InputLayer\",\"config\":{\"batch_input_shape\":[null,224,224,3],\"dtype\":\"float32\",\"sparse\":false,\"name\":\"input1\"},\"inbound_nodes\":[]},{\"name\":\"rescaling_Rescaling1\",\"class_name\":\"Rescaling\",\"config\":{\"scale\":0.00392156862745098,\"offset\":0,\"name\":\"rescaling_Rescaling1\",\"trainable\":true},\"inbound_nodes\":[[[\"input1\",0,0,{}]]]},{\"name\":\"conv2d_Conv2D1\",\"class_name\":\"Conv2D\",\"config\":{\"filters\":40,\"kernel_initializer\":{\"class_name\":\"VarianceScaling\",\"config\":{\"scale\":2,\"mode\":\"fan_in\",\"distribution\":\"normal\",\"seed\":null}},\"kernel_regularizer\":null,\"kernel_constraint\":null,\"kernel_size\":[3,3],\"strides\":[2,2],\"padding\":\"same\",\"data_format\":\"channels_last\",\"dilation_rate\":[1,1],\"activation\":\"linear\",\"use_bias\":false,\"bias_initializer\":{\"class_name\":\"Zeros\",\"config\":{}},\"bias_regularizer\":null,\"activity_regularizer\":null,\"bias_constraint\":null,\"name\":\"conv2d_Conv2D1\",\"trainable\":true},\"inbound_nodes\":[[[\"rescaling_Rescaling1\",0,0,{}]]]},{\"name\":\"batch_normalization_BatchNormalization1\",\"class_name\":\"BatchNormalization\",\"config\":{\"axis\":-1,\"momentum\":0.99,\"epsilon\":0.001,\"center\":true,\"scale\":true,\"beta_initializer\":{\"class_name\":\"Zeros\",\"config\":{}},\"gamma_initializer\":{\"class_name\":\"Ones\",\"config\":{}},\"moving_mean_initializer\":{\"class_name\":\"Zeros\",\"config\":{}},\"moving_variance_initializer\":{\"class_name\":\"Ones\",\"config\":{}},\"beta_regularizer\":null,\"gamma_regularizer\":null,\"beta_constraint\":null,\"gamma_constraint\":null,\"name\":\"batch_normalization_BatchNormalization1\",\"trainable\":true},\"inbound_nodes\":[[[\"conv2d_Conv2D1\",0,0,{}]]]},{\"name\":\"activation_Activation1\",\"class_name\":\"Activation\",\"config\":{\"activation\":\"swish\",\"name\":\"activation_Activation1\",\"trainable\":true},\"inbound_nodes\":[[[\"batch_normalization_BatchNormalization1\",0,0,{}]]]},{\"name\":\"depthwise_conv2d_DepthwiseConv2D1\",\"class_name\":\"DepthwiseConv2D\",\"config\":{\"kernel_size\":[3,3],\"strides\":[1,1],\"padding\":\"same\",\"data_format\":\"channels_last\",\"dilation_rate\":[1,1],\"activation\":\"linear\",\"use_bias\":false,\"bias_initializer\":{\"class_name\":\"Zeros\",\"config\":{}},\"bias_regularizer\":null,\"activity_regularizer\":null,\"bias_constraint\":null,\"name\":\"depthwise_conv2d_DepthwiseConv2D1\",\"trainable\":true,\"depth_multiplier\":1,\"depthwise_initializer\":{\"class_name\":\"VarianceScaling\",\"config\":{\"scale\":1,\"mode\":\"fan_avg\",\"distribution\":\"normal\",\"seed\":null}},\"depthwise_regularizer\":null,\"depthwise_constraint\":null},\"inbound_nodes\":[[[\"activation_Activation1\",0,0,{}]]]},{\"name\":\"batch_normalization_BatchNormalization2\",\"class_name\":\"BatchNormalization\",\"config\":{\"axis\":-1,\"momentum\":0.99,\"epsilon\":0.001,\"center\":true,\"scale\":true,\"beta_initializer\":{\"class_name\":\"Zeros\",\"config\":{}},\"gamma_initializer\":{\"class_name\":\"Ones\",\"config\":{}},\"moving_mean_initializer\":{\"class_name\":\"Zeros\",\"config\":{}},\"moving_variance_initializer\":{\"class_name\":\"Ones\",\"config\":{}},\"beta_regularizer\":null,\"gamma_regularizer\":null,\"beta_constraint\":null,\"gamma_constraint\":null,\"name\":\"batch_normalization_BatchNormalization2\",\"trainable\":true},\"inbound_nodes\":[[[\"depthwise_conv2d_DepthwiseConv2D1\",0,0,{}]]]},{\"name\":\"activation_Activation2\",\"class_name\":\"Activation\",\"config\":{\"activation\":\"swish\",\"name\":\"activation_Activation2\",\"trainable\":true},\"inbound_nodes\":[[[\"batch_normalization_BatchNormalization2\",0,0,{}]]]},{\"name\":\"global_average_pooling2d_GlobalAveragePooling2D1\",\"class_name\":\"GlobalAveragePooling2D\",\"config\":{\"data_format\":\"channels_last\",\"name\":\"global_average_pooling2d_GlobalAveragePooling2D1\",\"trainable\":true},\"inbound_nodes\":[[[\"activation_Activation2\",0,0,{}]]]},{\"name\":\"reshape_Reshape1\",\"class_name\":\"Reshape\",\"config\":{\"target_shape\":[1,1,40],\"name\":\"reshape_Reshape1\",\"trainable\":true},\"inbound_nodes\":[[[\"global_average_pooling2d_GlobalAveragePooling2D1\",0,0,{}]]]},{\"name\":\"dense_Dense1\",\"class_name\":\"Dense\",\"config\":{\"units\":10,\"activation\":\"swish\",\"use_bias\":true,\"kernel_initializer\":{\"class_name\":\"VarianceScaling\",\"config\":{\"scale\":2,\"mode\":\"fan_in\",\"distribution\":\"normal\",\"seed\":null}},\"bias_initializer\":{\"class_name\":\"Zeros\",\"config\":{}},\"kernel_regularizer\":null,\"bias_regularizer\":null,\"activity_regularizer\":null,\"kernel_constraint\":null,\"bias_constraint\":null,\"name\":\"dense_Dense1\",\"trainable\":true},\"inbound_nodes\":[[[\"reshape_Reshape1\",0,0,{}]]]},{\"name\":\"dense_Dense2\",\"class_name\":\"Dense\",\"config\":{\"units\":40,\"activation\":\"sigmoid\",\"use_bias\":true,\"kernel_initializer\":{\"class_name\":\"VarianceScaling\",\"config\":{\"scale\":2,\"mode\":\"fan_in\",\"distribution\":\"normal\",\"seed\":null}},\"bias_initializer\":{\"class_name\":\"Zeros\",\"config\":{}},\"kernel_regularizer\":null,\"bias_regularizer\":null,\"activity_regularizer\":null,\"kernel_constraint\":null,\"bias_constraint\":null,\"name\":\"dense_Dense2\",\"trainable\":true},\"inbound_nodes\":[[[\"dense_Dense1\",0,0,{}]]]},{\"name\":\"multiply_Multiply1\",\"class_name\":\"Multiply\",\"config\":{\"name\":\"multiply_Multiply1\",\"trainable\":true},\"inbound_nodes\":[[[\"activation_Activation2\",0,0,{}],[\"dense_Dense2\",0,0,{}]]]},{\"name\":\"conv2d_Conv2D2\",\"class_name\":\"Conv2D\",\"config\":{\"filters\":24,\"kernel_initializer\":{\"class_name\":\"VarianceScaling\",\"config\":{\"scale\":2,\"mode\":\"fan_in\",\"distribution\":\"normal\",\"seed\":null}},\"kernel_regularizer\":null,\"kernel_constraint\":null,\"kernel_size\":[1,1],\"strides\":[1,1],\"padding\":\"same\",\"data_format\":\"channels_last\",\"dilation_rate\":[1,1],\"activation\":\"linear\",\"use_bias\":false,\"bias_initializer\":{\"class_name\":\"Zeros\",\"config\":{}},\"bias_regularizer\":null,\"activity_regularizer\":null,\"bias_constraint\":null,\"name\":\"conv2d_Conv2D2\",\"trainable\":true},\"inbound_nodes\":[[[\"multiply_Multiply1\",0,0,{}]]]},{\"name\":\"batch_normalization_BatchNormalization3\",\"class_name\":\"BatchNormalization\",\"config\":{\"axis\":-1,\"momentum\":0.99,\"epsilon\":0.001,\"center\":true,\"scale\":true,\"beta_initializer\":{\"class_name\":\"Zeros\",\"config\":{}},\"gamma_initializer\":{\"class_name\":\"Ones\",\"config\":{}},\"moving_mean_initializer\":{\"class_name\":\"Zeros\",\"config\":{}},\"moving_variance_initializer\":{\"class_name\":\"Ones\",\"config\":{}},\"beta_regularizer\":null,\"gamma_regularizer\":null,\"beta_constraint\":null,\"gamma_constraint\":null,\"name\":\"batch_normalization_BatchNormalization3\",\"trainable\":true},\"inbound_nodes\":[[[\"conv2d_Conv2D2\",0,0,{}]]]},{\"name\":\"depthwise_conv2d_DepthwiseConv2D2\",\"class_name\":\"DepthwiseConv2D\",\"config\":{\"kernel_size\":[3,3],\"strides\":[1,1],\"padding\":\"same\",\"data_format\":\"channels_last\",\"dilation_rate\":[1,1],\"activation\":\"linear\",\"use_bias\":false,\"bias_initializer\":{\"class_name\":\"Zeros\",\"config\":{}},\"bias_regularizer\":null,\"activity_regularizer\":null,\"bias_constraint\":null,\"name\":\"depthwise_conv2d_DepthwiseConv2D2\",\"trainable\":true,\"depth_multiplier\":1,\"depthwise_initializer\":{\"class_name\":\"VarianceScaling\",\"config\":{\"scale\":1,\"mode\":\"fan_avg\",\"distribution\":\"normal\",\"seed\":null}},\"depthwise_regularizer\":null,\"depthwise_constraint\":null},\"inbound_nodes\":[[[\"batch_normalization_BatchNormalization3\",0,0,{}]]]},{\"name\":\"batch_normalization_BatchNormalization4\",\"class_name\":\"BatchNormalization\",\"config\":{\"axis\":-1,\"momentum\":0.99,\"epsilon\":0.001,\"center\":true,\"scale\":true,\"beta_initializer\":{\"class_name\":\"Zeros\",\"config\":{}},\"gamma_initializer\":{\"class_name\":\"Ones\",\"config\":{}},\"moving_mean_initializer\":{\"class_name\":\"Zeros\",\"config\":{}},\"moving_variance_initializer\":{\"class_name\":\"Ones\",\"config\":{}},\"beta_regularizer\":null,\"gamma_regularizer\":null,\"beta_constraint\":null,\"gamma_constraint\":null,\"name\":\"batch_normalization_BatchNormalization4\",\"trainable\":true},\"inbound_nodes\":[[[\"depthwise_conv2d_DepthwiseConv2D2\",0,0,{}]]]},{\"name\":\"activation_Activation3\",\"class_name\":\"Activation\",\"config\":{\"activation\":\"swish\",\"name\":\"activation_Activation3\",\"trainable\":true},\"inbound_nodes\":[[[\"batch_normalization_BatchNormalization4\",0,0,{}]]]},{\"name\":\"global_average_pooling2d_GlobalAveragePooling2D2\",\"class_name\":\"GlobalAveragePooling2D\",\"config\":{\"data_format\":\"channels_last\",\"name\":\"global_average_pooling2d_GlobalAveragePooling2D2\",\"trainable\":true},\"inbound_nodes\":[[[\"activation_Activation3\",0,0,{}]]]},{\"name\":\"reshape_Reshape2\",\"class_name\":\"Reshape\",\"config\":{\"target_shape\":[1,1,24],\"name\":\"reshape_Reshape2\",\"trainable\":true},\"inbound_nodes\":[[[\"global_average_pooling2d_GlobalAveragePooling2D2\",0,0,{}]]]},{\"name\":\"dense_Dense3\",\"class_name\":\"Dense\",\"config\":{\"units\":6,\"activation\":\"swish\",\"use_bias\":true,\"kernel_initializer\":{\"class_name\":\"VarianceScaling\",\"config\":{\"scale\":2,\"mode\":\"fan_in\",\"distribution\":\"normal\",\"seed\":null}},\"bias_initializer\":{\"class_name\":\"Zeros\",\"config\":{}},\"kernel_regularizer\":null,\"bias_regularizer\":null,\"activity_regularizer\":null,\"kernel_constraint\":null,\"bias_constraint\":null,\"name\":\"dense_Dense3\",\"trainable\":true},\"inbound_nodes\":[[[\"reshape_Reshape2\",0,0,{}]]]},{\"name\":\"dense_Dense4\",\"class_name\":\"Dense\",\"config\":{\"units\":24,\"activation\":\"sigmoid\",\"use_bias\":true,\"kernel_initializer\":{\"class_name\":\"VarianceScaling\",\"config\":{\"scale\":2,\"mode\":\"fan_in\",\"distribution\":\"normal\",\"seed\":null}},\"bias_initializer\":{\"class_name\":\"Zeros\",\"config\":{}},\"kernel_regularizer\":null,\"bias_regularizer\":null,\"activity_regularizer\":null,\"kernel_constraint\":null,\"bias_constraint\":null,\"name\":\"dense_Dense4\",\"trainable\":true},\"inbound_nodes\":[[[\"dense_Dense3\",0,0,{}]]]},{\"name\":\"multiply_Multiply2\",\"class_name\":\"Multiply\",\"config\":{\"name\":\"multiply_Multiply2\",\"trainable\":true},\"inbound_nodes\":[[[\"activation_Activation3\",0,0,{}],[\"dense_Dense4\",0,0,{}]]]},{\"name\":\"conv2d_Conv2D3\",\"class_name\":\"Conv2D\",\"config\":{\"filters\":24,\"kernel_initializer\":{\"class_name\":\"VarianceScaling\",\"config\":{\"scale\":2,\"mode\":\"fan_in\",\"distribution\":\"normal\",\"seed\":null}},\"kernel_regularizer\":null,\"kernel_constraint\":null,\"kernel_size\":[1,1],\"strides\":[1,1],\"padding\":\"same\",\"data_format\":\"channels_last\",\"dilation_rate\":[1,1],\"activation\":\"linear\",\"use_bias\":false,\"bias_initializer\":{\"class_name\":\"Zeros\",\"config\":{}},\"bias_regularizer\":null,\"activity_regularizer\":null,\"bias_constraint\":null,\"name\":\"conv2d_Conv2D3\",\"trainable\":true},\"inbound_nodes\":[[[\"multiply_Multiply2\",0,0,{}]]]},{\"name\":\"batch_normalization_BatchNormalization5\",\"class_name\":\"BatchNormalization\",\"config\":{\"axis\":-1,\"momentum\":0.99,\"epsilon\":0.001,\"center\":true,\"scale\":true,\"beta_initializer\":{\"class_name\":\"Zeros\",\"config\":{}},\"gamma_initializer\":{\"class_name\":\"Ones\",\"config\":{}},\"moving_mean_initializer\":{\"class_name\":\"Zeros\",\"config\":{}},\"moving_variance_initializer\":{\"class_name\":\"Ones\",\"config\":{}},\"beta_regularizer\":null,\"gamma_regularizer\":null,\"beta_constraint\":null,\"gamma_constraint\":null,\"name\":\"batch_normalization_BatchNormalization5\",\"trainable\":true},\"inbound_nodes\":[[[\"conv2d_Conv2D3\",0,0,{}]]]},{\"name\":\"dropout_Dropout1\",\"class_name\":\"Dropout\",\"config\":{\"rate\":0.2,\"noise_shape\":null,\"seed\":null,\"name\":\"dropout_Dropout1\",\"trainable\":true},\"inbound_nodes\":[[[\"batch_normalization_BatchNormalization5\",0,0,{}]]]},{\"name\":\"add_Add1\",\"class_name\":\"Add\",\"config\":{\"name\":\"add_Add1\",\"trainable\":true},\"inbound_nodes\":[[[\"dropout_Dropout1\",0,0,{}],[\"batch_normalization_BatchNormalization3\",0,0,{}]]]},{\"name\":\"conv2d_Conv2D4\",\"class_name\":\"Conv2D\",\"config\":{\"filters\":144,\"kernel_initializer\":{\"class_name\":\"VarianceScaling\",\"config\":{\"scale\":2,\"mode\":\"fan_in\",\"distribution\":\"normal\",\"seed\":null}},\"kernel_regularizer\":null,\"kernel_constraint\":null,\"kernel_size\":[1,1],\"strides\":[1,1],\"padding\":\"same\",\"data_format\":\"channels_last\",\"dilation_rate\":[1,1],\"activation\":\"linear\",\"use_bias\":false,\"bias_initializer\":{\"class_name\":\"Zeros\",\"config\":{}},\"bias_regularizer\":null,\"activity_regularizer\":null,\"bias_constraint\":null,\"name\":\"conv2d_Conv2D4\",\"trainable\":true},\"inbound_nodes\":[[[\"add_Add1\",0,0,{}]]]},{\"name\":\"batch_normalization_BatchNormalization6\",\"class_name\":\"BatchNormalization\",\"config\":{\"axis\":-1,\"momentum\":0.99,\"epsilon\":0.001,\"center\":true,\"scale\":true,\"beta_initializer\":{\"class_name\":\"Zeros\",\"config\":{}},\"gamma_initializer\":{\"class_name\":\"Ones\",\"config\":{}},\"moving_mean_initializer\":{\"class_name\":\"Zeros\",\"config\":{}},\"moving_variance_initializer\":{\"class_name\":\"Ones\",\"config\":{}},\"beta_regularizer\":null,\"gamma_regularizer\":null,\"beta_constraint\":null,\"gamma_constraint\":null,\"name\":\"batch_normalization_BatchNormalization6\",\"trainable\":true},\"inbound_nodes\":[[[\"conv2d_Conv2D4\",0,0,{}]]]},{\"name\":\"activation_Activation4\",\"class_name\":\"Activation\",\"config\":{\"activation\":\"swish\",\"name\":\"activation_Activation4\",\"trainable\":true},\"inbound_nodes\":[[[\"batch_normalization_BatchNormalization6\",0,0,{}]]]},{\"name\":\"depthwise_conv2d_DepthwiseConv2D3\",\"class_name\":\"DepthwiseConv2D\",\"config\":{\"kernel_size\":[3,3],\"strides\":[2,2],\"padding\":\"same\",\"data_format\":\"channels_last\",\"dilation_rate\":[1,1],\"activation\":\"linear\",\"use_bias\":false,\"bias_initializer\":{\"class_name\":\"Zeros\",\"config\":{}},\"bias_regularizer\":null,\"activity_regularizer\":null,\"bias_constraint\":null,\"name\":\"depthwise_conv2d_DepthwiseConv2D3\",\"trainable\":true,\"depth_multiplier\":1,\"depthwise_initializer\":{\"class_name\":\"VarianceScaling\",\"config\":{\"scale\":1,\"mode\":\"fan_avg\",\"distribution\":\"normal\",\"seed\":null}},\"depthwise_regularizer\":null,\"depthwise_constraint\":null},\"inbound_nodes\":[[[\"activation_Activation4\",0,0,{}]]]},{\"name\":\"batch_normalization_BatchNormalization7\",\"class_name\":\"BatchNormalization\",\"config\":{\"axis\":-1,\"momentum\":0.99,\"epsilon\":0.001,\"center\":true,\"scale\":true,\"beta_initializer\":{\"class_name\":\"Zeros\",\"config\":{}},\"gamma_initializer\":{\"class_name\":\"Ones\",\"config\":{}},\"moving_mean_initializer\":{\"class_name\":\"Zeros\",\"config\":{}},\"moving_variance_initializer\":{\"class_name\":\"Ones\",\"config\":{}},\"beta_regularizer\":null,\"gamma_regularizer\":null,\"beta_constraint\":null,\"gamma_constraint\":null,\"name\":\"batch_normalization_BatchNormalization7\",\"trainable\":true},\"inbound_nodes\":[[[\"depthwise_conv2d_DepthwiseConv2D3\",0,0,{}]]]},{\"name\":\"activation_Activation5\",\"class_name\":\"Activation\",\"config\":{\"activation\":\"swish\",\"name\":\"activation_Activation5\",\"trainable\":true},\"inbound_nodes\":[[[\"batch_normalization_BatchNormalization7\",0,0,{}]]]},{\"name\":\"global_average_pooling2d_GlobalAveragePooling2D3\",\"class_name\":\"GlobalAveragePooling2D\",\"config\":{\"data_format\":\"channels_last\",\"name\":\"global_average_pooling2d_GlobalAveragePooling2D3\",\"trainable\":true},\"inbound_nodes\":[[[\"activation_Activation5\",0,0,{}]]]},{\"name\":\"reshape_Reshape3\",\"class_name\":\"Reshape\",\"config\":{\"target_shape\":[1,1,144],\"name\":\"reshape_Reshape3\",\"trainable\":true},\"inbound_nodes\":[[[\"global_average_pooling2d_GlobalAveragePooling2D3\",0,0,{}]]]},{\"name\":\"dense_Dense5\",\"class_name\":\"Dense\",\"config\":{\"units\":6,\"activation\":\"swish\",\"use_bias\":true,\"kernel_initializer\":{\"class_name\":\"VarianceScaling\",\"config\":{\"scale\":2,\"mode\":\"fan_in\",\"distribution\":\"normal\",\"seed\":null}},\"bias_initializer\":{\"class_name\":\"Zeros\",\"config\":{}},\"kernel_regularizer\":null,\"bias_regularizer\":null,\"activity_regularizer\":null,\"kernel_constraint\":null,\"bias_constraint\":null,\"name\":\"dense_Dense5\",\"trainable\":true},\"inbound_nodes\":[[[\"reshape_Reshape3\",0,0,{}]]]},{\"name\":\"dense_Dense6\",\"class_name\":\"Dense\",\"config\":{\"units\":144,\"activation\":\"sigmoid\",\"use_bias\":true,\"kernel_initializer\":{\"class_name\":\"VarianceScaling\",\"config\":{\"scale\":2,\"mode\":\"fan_in\",\"distribution\":\"normal\",\"seed\":null}},\"bias_initializer\":{\"class_name\":\"Zeros\",\"config\":{}},\"kernel_regularizer\":null,\"bias_regularizer\":null,\"activity_regularizer\":null,\"kernel_constraint\":null,\"bias_constraint\":null,\"name\":\"dense_Dense6\",\"trainable\":true},\"inbound_nodes\":[[[\"dense_Dense5\",0,0,{}]]]},{\"name\":\"multiply_Multiply3\",\"class_name\":\"Multiply\",\"config\":{\"name\":\"multiply_Multiply3\",\"trainable\":true},\"inbound_nodes\":[[[\"activation_Activation5\",0,0,{}],[\"dense_Dense6\",0,0,{}]]]},{\"name\":\"conv2d_Conv2D5\",\"class_name\":\"Conv2D\",\"config\":{\"filters\":32,\"kernel_initializer\":{\"class_name\":\"VarianceScaling\",\"config\":{\"scale\":2,\"mode\":\"fan_in\",\"distribution\":\"normal\",\"seed\":null}},\"kernel_regularizer\":null,\"kernel_constraint\":null,\"kernel_size\":[1,1],\"strides\":[1,1],\"padding\":\"same\",\"data_format\":\"channels_last\",\"dilation_rate\":[1,1],\"activation\":\"linear\",\"use_bias\":false,\"bias_initializer\":{\"class_name\":\"Zeros\",\"config\":{}},\"bias_regularizer\":null,\"activity_regularizer\":null,\"bias_constraint\":null,\"name\":\"conv2d_Conv2D5\",\"trainable\":true},\"inbound_nodes\":[[[\"multiply_Multiply3\",0,0,{}]]]},{\"name\":\"batch_normalization_BatchNormalization8\",\"class_name\":\"BatchNormalization\",\"config\":{\"axis\":-1,\"momentum\":0.99,\"epsilon\":0.001,\"center\":true,\"scale\":true,\"beta_initializer\":{\"class_name\":\"Zeros\",\"config\":{}},\"gamma_initializer\":{\"class_name\":\"Ones\",\"config\":{}},\"moving_mean_initializer\":{\"class_name\":\"Zeros\",\"config\":{}},\"moving_variance_initializer\":{\"class_name\":\"Ones\",\"config\":{}},\"beta_regularizer\":null,\"gamma_regularizer\":null,\"beta_constraint\":null,\"gamma_constraint\":null,\"name\":\"batch_normalization_BatchNormalization8\",\"trainable\":true},\"inbound_nodes\":[[[\"conv2d_Conv2D5\",0,0,{}]]]},{\"name\":\"conv2d_Conv2D6\",\"class_name\":\"Conv2D\",\"config\":{\"filters\":192,\"kernel_initializer\":{\"class_name\":\"VarianceScaling\",\"config\":{\"scale\":2,\"mode\":\"fan_in\",\"distribution\":\"normal\",\"seed\":null}},\"kernel_regularizer\":null,\"kernel_constraint\":null,\"kernel_size\":[1,1],\"strides\":[1,1],\"padding\":\"same\",\"data_format\":\"channels_last\",\"dilation_rate\":[1,1],\"activation\":\"linear\",\"use_bias\":false,\"bias_initializer\":{\"class_name\":\"Zeros\",\"config\":{}},\"bias_regularizer\":null,\"activity_regularizer\":null,\"bias_constraint\":null,\"name\":\"conv2d_Conv2D6\",\"trainable\":true},\"inbound_nodes\":[[[\"batch_normalization_BatchNormalization8\",0,0,{}]]]},{\"name\":\"batch_normalization_BatchNormalization9\",\"class_name\":\"BatchNormalization\",\"config\":{\"axis\":-1,\"momentum\":0.99,\"epsilon\":0.001,\"center\":true,\"scale\":true,\"beta_initializer\":{\"class_name\":\"Zeros\",\"config\":{}},\"gamma_initializer\":{\"class_name\":\"Ones\",\"config\":{}},\"moving_mean_initializer\":{\"class_name\":\"Zeros\",\"config\":{}},\"moving_variance_initializer\":{\"class_name\":\"Ones\",\"config\":{}},\"beta_regularizer\":null,\"gamma_regularizer\":null,\"beta_constraint\":null,\"gamma_constraint\":null,\"name\":\"batch_normalization_BatchNormalization9\",\"trainable\":true},\"inbound_nodes\":[[[\"conv2d_Conv2D6\",0,0,{}]]]},{\"name\":\"activation_Activation6\",\"class_name\":\"Activation\",\"config\":{\"activation\":\"swish\",\"name\":\"activation_Activation6\",\"trainable\":true},\"inbound_nodes\":[[[\"batch_normalization_BatchNormalization9\",0,0,{}]]]},{\"name\":\"depthwise_conv2d_DepthwiseConv2D4\",\"class_name\":\"DepthwiseConv2D\",\"config\":{\"kernel_size\":[3,3],\"strides\":[1,1],\"padding\":\"same\",\"data_format\":\"channels_last\",\"dilation_rate\":[1,1],\"activation\":\"linear\",\"use_bias\":false,\"bias_initializer\":{\"class_name\":\"Zeros\",\"config\":{}},\"bias_regularizer\":null,\"activity_regularizer\":null,\"bias_constraint\":null,\"name\":\"depthwise_conv2d_DepthwiseConv2D4\",\"trainable\":true,\"depth_multiplier\":1,\"depthwise_initializer\":{\"class_name\":\"VarianceScaling\",\"config\":{\"scale\":1,\"mode\":\"fan_avg\",\"distribution\":\"normal\",\"seed\":null}},\"depthwise_regularizer\":null,\"depthwise_constraint\":null},\"inbound_nodes\":[[[\"activation_Activation6\",0,0,{}]]]},{\"name\":\"batch_normalization_BatchNormalization10\",\"class_name\":\"BatchNormalization\",\"config\":{\"axis\":-1,\"momentum\":0.99,\"epsilon\":0.001,\"center\":true,\"scale\":true,\"beta_initializer\":{\"class_name\":\"Zeros\",\"config\":{}},\"gamma_initializer\":{\"class_name\":\"Ones\",\"config\":{}},\"moving_mean_initializer\":{\"class_name\":\"Zeros\",\"config\":{}},\"moving_variance_initializer\":{\"class_name\":\"Ones\",\"config\":{}},\"beta_regularizer\":null,\"gamma_regularizer\":null,\"beta_constraint\":null,\"gamma_constraint\":null,\"name\":\"batch_normalization_BatchNormalization10\",\"trainable\":true},\"inbound_nodes\":[[[\"depthwise_conv2d_DepthwiseConv2D4\",0,0,{}]]]},{\"name\":\"activation_Activation7\",\"class_name\":\"Activation\",\"config\":{\"activation\":\"swish\",\"name\":\"activation_Activation7\",\"trainable\":true},\"inbound_nodes\":[[[\"batch_normalization_BatchNormalization10\",0,0,{}]]]},{\"name\":\"global_average_pooling2d_GlobalAveragePooling2D4\",\"class_name\":\"GlobalAveragePooling2D\",\"config\":{\"data_format\":\"channels_last\",\"name\":\"global_average_pooling2d_GlobalAveragePooling2D4\",\"trainable\":true},\"inbound_nodes\":[[[\"activation_Activation7\",0,0,{}]]]},{\"name\":\"reshape_Reshape4\",\"class_name\":\"Reshape\",\"config\":{\"target_shape\":[1,1,192],\"name\":\"reshape_Reshape4\",\"trainable\":true},\"inbound_nodes\":[[[\"global_average_pooling2d_GlobalAveragePooling2D4\",0,0,{}]]]},{\"name\":\"dense_Dense7\",\"class_name\":\"Dense\",\"config\":{\"units\":8,\"activation\":\"swish\",\"use_bias\":true,\"kernel_initializer\":{\"class_name\":\"VarianceScaling\",\"config\":{\"scale\":2,\"mode\":\"fan_in\",\"distribution\":\"normal\",\"seed\":null}},\"bias_initializer\":{\"class_name\":\"Zeros\",\"config\":{}},\"kernel_regularizer\":null,\"bias_regularizer\":null,\"activity_regularizer\":null,\"kernel_constraint\":null,\"bias_constraint\":null,\"name\":\"dense_Dense7\",\"trainable\":true},\"inbound_nodes\":[[[\"reshape_Reshape4\",0,0,{}]]]},{\"name\":\"dense_Dense8\",\"class_name\":\"Dense\",\"config\":{\"units\":192,\"activation\":\"sigmoid\",\"use_bias\":true,\"kernel_initializer\":{\"class_name\":\"VarianceScaling\",\"config\":{\"scale\":2,\"mode\":\"fan_in\",\"distribution\":\"normal\",\"seed\":null}},\"bias_initializer\":{\"class_name\":\"Zeros\",\"config\":{}},\"kernel_regularizer\":null,\"bias_regularizer\":null,\"activity_regularizer\":null,\"kernel_constraint\":null,\"bias_constraint\":null,\"name\":\"dense_Dense8\",\"trainable\":true},\"inbound_nodes\":[[[\"dense_Dense7\",0,0,{}]]]},{\"name\":\"multiply_Multiply4\",\"class_name\":\"Multiply\",\"config\":{\"name\":\"multiply_Multiply4\",\"trainable\":true},\"inbound_nodes\":[[[\"activation_Activation7\",0,0,{}],[\"dense_Dense8\",0,0,{}]]]},{\"name\":\"conv2d_Conv2D7\",\"class_name\":\"Conv2D\",\"config\":{\"filters\":32,\"kernel_initializer\":{\"class_name\":\"VarianceScaling\",\"config\":{\"scale\":2,\"mode\":\"fan_in\",\"distribution\":\"normal\",\"seed\":null}},\"kernel_regularizer\":null,\"kernel_constraint\":null,\"kernel_size\":[1,1],\"strides\":[1,1],\"padding\":\"same\",\"data_format\":\"channels_last\",\"dilation_rate\":[1,1],\"activation\":\"linear\",\"use_bias\":false,\"bias_initializer\":{\"class_name\":\"Zeros\",\"config\":{}},\"bias_regularizer\":null,\"activity_regularizer\":null,\"bias_constraint\":null,\"name\":\"conv2d_Conv2D7\",\"trainable\":true},\"inbound_nodes\":[[[\"multiply_Multiply4\",0,0,{}]]]},{\"name\":\"batch_normalization_BatchNormalization11\",\"class_name\":\"BatchNormalization\",\"config\":{\"axis\":-1,\"momentum\":0.99,\"epsilon\":0.001,\"center\":true,\"scale\":true,\"beta_initializer\":{\"class_name\":\"Zeros\",\"config\":{}},\"gamma_initializer\":{\"class_name\":\"Ones\",\"config\":{}},\"moving_mean_initializer\":{\"class_name\":\"Zeros\",\"config\":{}},\"moving_variance_initializer\":{\"class_name\":\"Ones\",\"config\":{}},\"beta_regularizer\":null,\"gamma_regularizer\":null,\"beta_constraint\":null,\"gamma_constraint\":null,\"name\":\"batch_normalization_BatchNormalization11\",\"trainable\":true},\"inbound_nodes\":[[[\"conv2d_Conv2D7\",0,0,{}]]]},{\"name\":\"dropout_Dropout2\",\"class_name\":\"Dropout\",\"config\":{\"rate\":0.16666666666666669,\"noise_shape\":null,\"seed\":null,\"name\":\"dropout_Dropout2\",\"trainable\":true},\"inbound_nodes\":[[[\"batch_normalization_BatchNormalization11\",0,0,{}]]]},{\"name\":\"add_Add2\",\"class_name\":\"Add\",\"config\":{\"name\":\"add_Add2\",\"trainable\":true},\"inbound_nodes\":[[[\"dropout_Dropout2\",0,0,{}],[\"batch_normalization_BatchNormalization8\",0,0,{}]]]},{\"name\":\"conv2d_Conv2D8\",\"class_name\":\"Conv2D\",\"config\":{\"filters\":192,\"kernel_initializer\":{\"class_name\":\"VarianceScaling\",\"config\":{\"scale\":2,\"mode\":\"fan_in\",\"distribution\":\"normal\",\"seed\":null}},\"kernel_regularizer\":null,\"kernel_constraint\":null,\"kernel_size\":[1,1],\"strides\":[1,1],\"padding\":\"same\",\"data_format\":\"channels_last\",\"dilation_rate\":[1,1],\"activation\":\"linear\",\"use_bias\":false,\"bias_initializer\":{\"class_name\":\"Zeros\",\"config\":{}},\"bias_regularizer\":null,\"activity_regularizer\":null,\"bias_constraint\":null,\"name\":\"conv2d_Conv2D8\",\"trainable\":true},\"inbound_nodes\":[[[\"add_Add2\",0,0,{}]]]},{\"name\":\"batch_normalization_BatchNormalization12\",\"class_name\":\"BatchNormalization\",\"config\":{\"axis\":-1,\"momentum\":0.99,\"epsilon\":0.001,\"center\":true,\"scale\":true,\"beta_initializer\":{\"class_name\":\"Zeros\",\"config\":{}},\"gamma_initializer\":{\"class_name\":\"Ones\",\"config\":{}},\"moving_mean_initializer\":{\"class_name\":\"Zeros\",\"config\":{}},\"moving_variance_initializer\":{\"class_name\":\"Ones\",\"config\":{}},\"beta_regularizer\":null,\"gamma_regularizer\":null,\"beta_constraint\":null,\"gamma_constraint\":null,\"name\":\"batch_normalization_BatchNormalization12\",\"trainable\":true},\"inbound_nodes\":[[[\"conv2d_Conv2D8\",0,0,{}]]]},{\"name\":\"activation_Activation8\",\"class_name\":\"Activation\",\"config\":{\"activation\":\"swish\",\"name\":\"activation_Activation8\",\"trainable\":true},\"inbound_nodes\":[[[\"batch_normalization_BatchNormalization12\",0,0,{}]]]},{\"name\":\"depthwise_conv2d_DepthwiseConv2D5\",\"class_name\":\"DepthwiseConv2D\",\"config\":{\"kernel_size\":[3,3],\"strides\":[1,1],\"padding\":\"same\",\"data_format\":\"channels_last\",\"dilation_rate\":[1,1],\"activation\":\"linear\",\"use_bias\":false,\"bias_initializer\":{\"class_name\":\"Zeros\",\"config\":{}},\"bias_regularizer\":null,\"activity_regularizer\":null,\"bias_constraint\":null,\"name\":\"depthwise_conv2d_DepthwiseConv2D5\",\"trainable\":true,\"depth_multiplier\":1,\"depthwise_initializer\":{\"class_name\":\"VarianceScaling\",\"config\":{\"scale\":1,\"mode\":\"fan_avg\",\"distribution\":\"normal\",\"seed\":null}},\"depthwise_regularizer\":null,\"depthwise_constraint\":null},\"inbound_nodes\":[[[\"activation_Activation8\",0,0,{}]]]},{\"name\":\"batch_normalization_BatchNormalization13\",\"class_name\":\"BatchNormalization\",\"config\":{\"axis\":-1,\"momentum\":0.99,\"epsilon\":0.001,\"center\":true,\"scale\":true,\"beta_initializer\":{\"class_name\":\"Zeros\",\"config\":{}},\"gamma_initializer\":{\"class_name\":\"Ones\",\"config\":{}},\"moving_mean_initializer\":{\"class_name\":\"Zeros\",\"config\":{}},\"moving_variance_initializer\":{\"class_name\":\"Ones\",\"config\":{}},\"beta_regularizer\":null,\"gamma_regularizer\":null,\"beta_constraint\":null,\"gamma_constraint\":null,\"name\":\"batch_normalization_BatchNormalization13\",\"trainable\":true},\"inbound_nodes\":[[[\"depthwise_conv2d_DepthwiseConv2D5\",0,0,{}]]]},{\"name\":\"activation_Activation9\",\"class_name\":\"Activation\",\"config\":{\"activation\":\"swish\",\"name\":\"activation_Activation9\",\"trainable\":true},\"inbound_nodes\":[[[\"batch_normalization_BatchNormalization13\",0,0,{}]]]},{\"name\":\"global_average_pooling2d_GlobalAveragePooling2D5\",\"class_name\":\"GlobalAveragePooling2D\",\"config\":{\"data_format\":\"channels_last\",\"name\":\"global_average_pooling2d_GlobalAveragePooling2D5\",\"trainable\":true},\"inbound_nodes\":[[[\"activation_Activation9\",0,0,{}]]]},{\"name\":\"reshape_Reshape5\",\"class_name\":\"Reshape\",\"config\":{\"target_shape\":[1,1,192],\"name\":\"reshape_Reshape5\",\"trainable\":true},\"inbound_nodes\":[[[\"global_average_pooling2d_GlobalAveragePooling2D5\",0,0,{}]]]},{\"name\":\"dense_Dense9\",\"class_name\":\"Dense\",\"config\":{\"units\":8,\"activation\":\"swish\",\"use_bias\":true,\"kernel_initializer\":{\"class_name\":\"VarianceScaling\",\"config\":{\"scale\":2,\"mode\":\"fan_in\",\"distribution\":\"normal\",\"seed\":null}},\"bias_initializer\":{\"class_name\":\"Zeros\",\"config\":{}},\"kernel_regularizer\":null,\"bias_regularizer\":null,\"activity_regularizer\":null,\"kernel_constraint\":null,\"bias_constraint\":null,\"name\":\"dense_Dense9\",\"trainable\":true},\"inbound_nodes\":[[[\"reshape_Reshape5\",0,0,{}]]]},{\"name\":\"dense_Dense10\",\"class_name\":\"Dense\",\"config\":{\"units\":192,\"activation\":\"sigmoid\",\"use_bias\":true,\"kernel_initializer\":{\"class_name\":\"VarianceScaling\",\"config\":{\"scale\":2,\"mode\":\"fan_in\",\"distribution\":\"normal\",\"seed\":null}},\"bias_initializer\":{\"class_name\":\"Zeros\",\"config\":{}},\"kernel_regularizer\":null,\"bias_regularizer\":null,\"activity_regularizer\":null,\"kernel_constraint\":null,\"bias_constraint\":null,\"name\":\"dense_Dense10\",\"trainable\":true},\"inbound_nodes\":[[[\"dense_Dense9\",0,0,{}]]]},{\"name\":\"multiply_Multiply5\",\"class_name\":\"Multiply\",\"config\":{\"name\":\"multiply_Multiply5\",\"trainable\":true},\"inbound_nodes\":[[[\"activation_Activation9\",0,0,{}],[\"dense_Dense10\",0,0,{}]]]},{\"name\":\"conv2d_Conv2D9\",\"class_name\":\"Conv2D\",\"config\":{\"filters\":32,\"kernel_initializer\":{\"class_name\":\"VarianceScaling\",\"config\":{\"scale\":2,\"mode\":\"fan_in\",\"distribution\":\"normal\",\"seed\":null}},\"kernel_regularizer\":null,\"kernel_constraint\":null,\"kernel_size\":[1,1],\"strides\":[1,1],\"padding\":\"same\",\"data_format\":\"channels_last\",\"dilation_rate\":[1,1],\"activation\":\"linear\",\"use_bias\":false,\"bias_initializer\":{\"class_name\":\"Zeros\",\"config\":{}},\"bias_regularizer\":null,\"activity_regularizer\":null,\"bias_constraint\":null,\"name\":\"conv2d_Conv2D9\",\"trainable\":true},\"inbound_nodes\":[[[\"multiply_Multiply5\",0,0,{}]]]},{\"name\":\"batch_normalization_BatchNormalization14\",\"class_name\":\"BatchNormalization\",\"config\":{\"axis\":-1,\"momentum\":0.99,\"epsilon\":0.001,\"center\":true,\"scale\":true,\"beta_initializer\":{\"class_name\":\"Zeros\",\"config\":{}},\"gamma_initializer\":{\"class_name\":\"Ones\",\"config\":{}},\"moving_mean_initializer\":{\"class_name\":\"Zeros\",\"config\":{}},\"moving_variance_initializer\":{\"class_name\":\"Ones\",\"config\":{}},\"beta_regularizer\":null,\"gamma_regularizer\":null,\"beta_constraint\":null,\"gamma_constraint\":null,\"name\":\"batch_normalization_BatchNormalization14\",\"trainable\":true},\"inbound_nodes\":[[[\"conv2d_Conv2D9\",0,0,{}]]]},{\"name\":\"dropout_Dropout3\",\"class_name\":\"Dropout\",\"config\":{\"rate\":0.23333333333333334,\"noise_shape\":null,\"seed\":null,\"name\":\"dropout_Dropout3\",\"trainable\":true},\"inbound_nodes\":[[[\"batch_normalization_BatchNormalization14\",0,0,{}]]]},{\"name\":\"add_Add3\",\"class_name\":\"Add\",\"config\":{\"name\":\"add_Add3\",\"trainable\":true},\"inbound_nodes\":[[[\"dropout_Dropout3\",0,0,{}],[\"add_Add2\",0,0,{}]]]},{\"name\":\"conv2d_Conv2D10\",\"class_name\":\"Conv2D\",\"config\":{\"filters\":192,\"kernel_initializer\":{\"class_name\":\"VarianceScaling\",\"config\":{\"scale\":2,\"mode\":\"fan_in\",\"distribution\":\"normal\",\"seed\":null}},\"kernel_regularizer\":null,\"kernel_constraint\":null,\"kernel_size\":[1,1],\"strides\":[1,1],\"padding\":\"same\",\"data_format\":\"channels_last\",\"dilation_rate\":[1,1],\"activation\":\"linear\",\"use_bias\":false,\"bias_initializer\":{\"class_name\":\"Zeros\",\"config\":{}},\"bias_regularizer\":null,\"activity_regularizer\":null,\"bias_constraint\":null,\"name\":\"conv2d_Conv2D10\",\"trainable\":true},\"inbound_nodes\":[[[\"add_Add3\",0,0,{}]]]},{\"name\":\"batch_normalization_BatchNormalization15\",\"class_name\":\"BatchNormalization\",\"config\":{\"axis\":-1,\"momentum\":0.99,\"epsilon\":0.001,\"center\":true,\"scale\":true,\"beta_initializer\":{\"class_name\":\"Zeros\",\"config\":{}},\"gamma_initializer\":{\"class_name\":\"Ones\",\"config\":{}},\"moving_mean_initializer\":{\"class_name\":\"Zeros\",\"config\":{}},\"moving_variance_initializer\":{\"class_name\":\"Ones\",\"config\":{}},\"beta_regularizer\":null,\"gamma_regularizer\":null,\"beta_constraint\":null,\"gamma_constraint\":null,\"name\":\"batch_normalization_BatchNormalization15\",\"trainable\":true},\"inbound_nodes\":[[[\"conv2d_Conv2D10\",0,0,{}]]]},{\"name\":\"activation_Activation10\",\"class_name\":\"Activation\",\"config\":{\"activation\":\"swish\",\"name\":\"activation_Activation10\",\"trainable\":true},\"inbound_nodes\":[[[\"batch_normalization_BatchNormalization15\",0,0,{}]]]},{\"name\":\"depthwise_conv2d_DepthwiseConv2D6\",\"class_name\":\"DepthwiseConv2D\",\"config\":{\"kernel_size\":[5,5],\"strides\":[2,2],\"padding\":\"same\",\"data_format\":\"channels_last\",\"dilation_rate\":[1,1],\"activation\":\"linear\",\"use_bias\":false,\"bias_initializer\":{\"class_name\":\"Zeros\",\"config\":{}},\"bias_regularizer\":null,\"activity_regularizer\":null,\"bias_constraint\":null,\"name\":\"depthwise_conv2d_DepthwiseConv2D6\",\"trainable\":true,\"depth_multiplier\":1,\"depthwise_initializer\":{\"class_name\":\"VarianceScaling\",\"config\":{\"scale\":1,\"mode\":\"fan_avg\",\"distribution\":\"normal\",\"seed\":null}},\"depthwise_regularizer\":null,\"depthwise_constraint\":null},\"inbound_nodes\":[[[\"activation_Activation10\",0,0,{}]]]},{\"name\":\"batch_normalization_BatchNormalization16\",\"class_name\":\"BatchNormalization\",\"config\":{\"axis\":-1,\"momentum\":0.99,\"epsilon\":0.001,\"center\":true,\"scale\":true,\"beta_initializer\":{\"class_name\":\"Zeros\",\"config\":{}},\"gamma_initializer\":{\"class_name\":\"Ones\",\"config\":{}},\"moving_mean_initializer\":{\"class_name\":\"Zeros\",\"config\":{}},\"moving_variance_initializer\":{\"class_name\":\"Ones\",\"config\":{}},\"beta_regularizer\":null,\"gamma_regularizer\":null,\"beta_constraint\":null,\"gamma_constraint\":null,\"name\":\"batch_normalization_BatchNormalization16\",\"trainable\":true},\"inbound_nodes\":[[[\"depthwise_conv2d_DepthwiseConv2D6\",0,0,{}]]]},{\"name\":\"activation_Activation11\",\"class_name\":\"Activation\",\"config\":{\"activation\":\"swish\",\"name\":\"activation_Activation11\",\"trainable\":true},\"inbound_nodes\":[[[\"batch_normalization_BatchNormalization16\",0,0,{}]]]},{\"name\":\"global_average_pooling2d_GlobalAveragePooling2D6\",\"class_name\":\"GlobalAveragePooling2D\",\"config\":{\"data_format\":\"channels_last\",\"name\":\"global_average_pooling2d_GlobalAveragePooling2D6\",\"trainable\":true},\"inbound_nodes\":[[[\"activation_Activation11\",0,0,{}]]]},{\"name\":\"reshape_Reshape6\",\"class_name\":\"Reshape\",\"config\":{\"target_shape\":[1,1,192],\"name\":\"reshape_Reshape6\",\"trainable\":true},\"inbound_nodes\":[[[\"global_average_pooling2d_GlobalAveragePooling2D6\",0,0,{}]]]},{\"name\":\"dense_Dense11\",\"class_name\":\"Dense\",\"config\":{\"units\":8,\"activation\":\"swish\",\"use_bias\":true,\"kernel_initializer\":{\"class_name\":\"VarianceScaling\",\"config\":{\"scale\":2,\"mode\":\"fan_in\",\"distribution\":\"normal\",\"seed\":null}},\"bias_initializer\":{\"class_name\":\"Zeros\",\"config\":{}},\"kernel_regularizer\":null,\"bias_regularizer\":null,\"activity_regularizer\":null,\"kernel_constraint\":null,\"bias_constraint\":null,\"name\":\"dense_Dense11\",\"trainable\":true},\"inbound_nodes\":[[[\"reshape_Reshape6\",0,0,{}]]]},{\"name\":\"dense_Dense12\",\"class_name\":\"Dense\",\"config\":{\"units\":192,\"activation\":\"sigmoid\",\"use_bias\":true,\"kernel_initializer\":{\"class_name\":\"VarianceScaling\",\"config\":{\"scale\":2,\"mode\":\"fan_in\",\"distribution\":\"normal\",\"seed\":null}},\"bias_initializer\":{\"class_name\":\"Zeros\",\"config\":{}},\"kernel_regularizer\":null,\"bias_regularizer\":null,\"activity_regularizer\":null,\"kernel_constraint\":null,\"bias_constraint\":null,\"name\":\"dense_Dense12\",\"trainable\":true},\"inbound_nodes\":[[[\"dense_Dense11\",0,0,{}]]]},{\"name\":\"multiply_Multiply6\",\"class_name\":\"Multiply\",\"config\":{\"name\":\"multiply_Multiply6\",\"trainable\":true},\"inbound_nodes\":[[[\"activation_Activation11\",0,0,{}],[\"dense_Dense12\",0,0,{}]]]},{\"name\":\"conv2d_Conv2D11\",\"class_name\":\"Conv2D\",\"config\":{\"filters\":48,\"kernel_initializer\":{\"class_name\":\"VarianceScaling\",\"config\":{\"scale\":2,\"mode\":\"fan_in\",\"distribution\":\"normal\",\"seed\":null}},\"kernel_regularizer\":null,\"kernel_constraint\":null,\"kernel_size\":[1,1],\"strides\":[1,1],\"padding\":\"same\",\"data_format\":\"channels_last\",\"dilation_rate\":[1,1],\"activation\":\"linear\",\"use_bias\":false,\"bias_initializer\":{\"class_name\":\"Zeros\",\"config\":{}},\"bias_regularizer\":null,\"activity_regularizer\":null,\"bias_constraint\":null,\"name\":\"conv2d_Conv2D11\",\"trainable\":true},\"inbound_nodes\":[[[\"multiply_Multiply6\",0,0,{}]]]},{\"name\":\"batch_normalization_BatchNormalization17\",\"class_name\":\"BatchNormalization\",\"config\":{\"axis\":-1,\"momentum\":0.99,\"epsilon\":0.001,\"center\":true,\"scale\":true,\"beta_initializer\":{\"class_name\":\"Zeros\",\"config\":{}},\"gamma_initializer\":{\"class_name\":\"Ones\",\"config\":{}},\"moving_mean_initializer\":{\"class_name\":\"Zeros\",\"config\":{}},\"moving_variance_initializer\":{\"class_name\":\"Ones\",\"config\":{}},\"beta_regularizer\":null,\"gamma_regularizer\":null,\"beta_constraint\":null,\"gamma_constraint\":null,\"name\":\"batch_normalization_BatchNormalization17\",\"trainable\":true},\"inbound_nodes\":[[[\"conv2d_Conv2D11\",0,0,{}]]]},{\"name\":\"conv2d_Conv2D12\",\"class_name\":\"Conv2D\",\"config\":{\"filters\":288,\"kernel_initializer\":{\"class_name\":\"VarianceScaling\",\"config\":{\"scale\":2,\"mode\":\"fan_in\",\"distribution\":\"normal\",\"seed\":null}},\"kernel_regularizer\":null,\"kernel_constraint\":null,\"kernel_size\":[1,1],\"strides\":[1,1],\"padding\":\"same\",\"data_format\":\"channels_last\",\"dilation_rate\":[1,1],\"activation\":\"linear\",\"use_bias\":false,\"bias_initializer\":{\"class_name\":\"Zeros\",\"config\":{}},\"bias_regularizer\":null,\"activity_regularizer\":null,\"bias_constraint\":null,\"name\":\"conv2d_Conv2D12\",\"trainable\":true},\"inbound_nodes\":[[[\"batch_normalization_BatchNormalization17\",0,0,{}]]]},{\"name\":\"batch_normalization_BatchNormalization18\",\"class_name\":\"BatchNormalization\",\"config\":{\"axis\":-1,\"momentum\":0.99,\"epsilon\":0.001,\"center\":true,\"scale\":true,\"beta_initializer\":{\"class_name\":\"Zeros\",\"config\":{}},\"gamma_initializer\":{\"class_name\":\"Ones\",\"config\":{}},\"moving_mean_initializer\":{\"class_name\":\"Zeros\",\"config\":{}},\"moving_variance_initializer\":{\"class_name\":\"Ones\",\"config\":{}},\"beta_regularizer\":null,\"gamma_regularizer\":null,\"beta_constraint\":null,\"gamma_constraint\":null,\"name\":\"batch_normalization_BatchNormalization18\",\"trainable\":true},\"inbound_nodes\":[[[\"conv2d_Conv2D12\",0,0,{}]]]},{\"name\":\"activation_Activation12\",\"class_name\":\"Activation\",\"config\":{\"activation\":\"swish\",\"name\":\"activation_Activation12\",\"trainable\":true},\"inbound_nodes\":[[[\"batch_normalization_BatchNormalization18\",0,0,{}]]]},{\"name\":\"depthwise_conv2d_DepthwiseConv2D7\",\"class_name\":\"DepthwiseConv2D\",\"config\":{\"kernel_size\":[5,5],\"strides\":[1,1],\"padding\":\"same\",\"data_format\":\"channels_last\",\"dilation_rate\":[1,1],\"activation\":\"linear\",\"use_bias\":false,\"bias_initializer\":{\"class_name\":\"Zeros\",\"config\":{}},\"bias_regularizer\":null,\"activity_regularizer\":null,\"bias_constraint\":null,\"name\":\"depthwise_conv2d_DepthwiseConv2D7\",\"trainable\":true,\"depth_multiplier\":1,\"depthwise_initializer\":{\"class_name\":\"VarianceScaling\",\"config\":{\"scale\":1,\"mode\":\"fan_avg\",\"distribution\":\"normal\",\"seed\":null}},\"depthwise_regularizer\":null,\"depthwise_constraint\":null},\"inbound_nodes\":[[[\"activation_Activation12\",0,0,{}]]]},{\"name\":\"batch_normalization_BatchNormalization19\",\"class_name\":\"BatchNormalization\",\"config\":{\"axis\":-1,\"momentum\":0.99,\"epsilon\":0.001,\"center\":true,\"scale\":true,\"beta_initializer\":{\"class_name\":\"Zeros\",\"config\":{}},\"gamma_initializer\":{\"class_name\":\"Ones\",\"config\":{}},\"moving_mean_initializer\":{\"class_name\":\"Zeros\",\"config\":{}},\"moving_variance_initializer\":{\"class_name\":\"Ones\",\"config\":{}},\"beta_regularizer\":null,\"gamma_regularizer\":null,\"beta_constraint\":null,\"gamma_constraint\":null,\"name\":\"batch_normalization_BatchNormalization19\",\"trainable\":true},\"inbound_nodes\":[[[\"depthwise_conv2d_DepthwiseConv2D7\",0,0,{}]]]},{\"name\":\"activation_Activation13\",\"class_name\":\"Activation\",\"config\":{\"activation\":\"swish\",\"name\":\"activation_Activation13\",\"trainable\":true},\"inbound_nodes\":[[[\"batch_normalization_BatchNormalization19\",0,0,{}]]]},{\"name\":\"global_average_pooling2d_GlobalAveragePooling2D7\",\"class_name\":\"GlobalAveragePooling2D\",\"config\":{\"data_format\":\"channels_last\",\"name\":\"global_average_pooling2d_GlobalAveragePooling2D7\",\"trainable\":true},\"inbound_nodes\":[[[\"activation_Activation13\",0,0,{}]]]},{\"name\":\"reshape_Reshape7\",\"class_name\":\"Reshape\",\"config\":{\"target_shape\":[1,1,288],\"name\":\"reshape_Reshape7\",\"trainable\":true},\"inbound_nodes\":[[[\"global_average_pooling2d_GlobalAveragePooling2D7\",0,0,{}]]]},{\"name\":\"dense_Dense13\",\"class_name\":\"Dense\",\"config\":{\"units\":12,\"activation\":\"swish\",\"use_bias\":true,\"kernel_initializer\":{\"class_name\":\"VarianceScaling\",\"config\":{\"scale\":2,\"mode\":\"fan_in\",\"distribution\":\"normal\",\"seed\":null}},\"bias_initializer\":{\"class_name\":\"Zeros\",\"config\":{}},\"kernel_regularizer\":null,\"bias_regularizer\":null,\"activity_regularizer\":null,\"kernel_constraint\":null,\"bias_constraint\":null,\"name\":\"dense_Dense13\",\"trainable\":true},\"inbound_nodes\":[[[\"reshape_Reshape7\",0,0,{}]]]},{\"name\":\"dense_Dense14\",\"class_name\":\"Dense\",\"config\":{\"units\":288,\"activation\":\"sigmoid\",\"use_bias\":true,\"kernel_initializer\":{\"class_name\":\"VarianceScaling\",\"config\":{\"scale\":2,\"mode\":\"fan_in\",\"distribution\":\"normal\",\"seed\":null}},\"bias_initializer\":{\"class_name\":\"Zeros\",\"config\":{}},\"kernel_regularizer\":null,\"bias_regularizer\":null,\"activity_regularizer\":null,\"kernel_constraint\":null,\"bias_constraint\":null,\"name\":\"dense_Dense14\",\"trainable\":true},\"inbound_nodes\":[[[\"dense_Dense13\",0,0,{}]]]},{\"name\":\"multiply_Multiply7\",\"class_name\":\"Multiply\",\"config\":{\"name\":\"multiply_Multiply7\",\"trainable\":true},\"inbound_nodes\":[[[\"activation_Activation13\",0,0,{}],[\"dense_Dense14\",0,0,{}]]]},{\"name\":\"conv2d_Conv2D13\",\"class_name\":\"Conv2D\",\"config\":{\"filters\":48,\"kernel_initializer\":{\"class_name\":\"VarianceScaling\",\"config\":{\"scale\":2,\"mode\":\"fan_in\",\"distribution\":\"normal\",\"seed\":null}},\"kernel_regularizer\":null,\"kernel_constraint\":null,\"kernel_size\":[1,1],\"strides\":[1,1],\"padding\":\"same\",\"data_format\":\"channels_last\",\"dilation_rate\":[1,1],\"activation\":\"linear\",\"use_bias\":false,\"bias_initializer\":{\"class_name\":\"Zeros\",\"config\":{}},\"bias_regularizer\":null,\"activity_regularizer\":null,\"bias_constraint\":null,\"name\":\"conv2d_Conv2D13\",\"trainable\":true},\"inbound_nodes\":[[[\"multiply_Multiply7\",0,0,{}]]]},{\"name\":\"batch_normalization_BatchNormalization20\",\"class_name\":\"BatchNormalization\",\"config\":{\"axis\":-1,\"momentum\":0.99,\"epsilon\":0.001,\"center\":true,\"scale\":true,\"beta_initializer\":{\"class_name\":\"Zeros\",\"config\":{}},\"gamma_initializer\":{\"class_name\":\"Ones\",\"config\":{}},\"moving_mean_initializer\":{\"class_name\":\"Zeros\",\"config\":{}},\"moving_variance_initializer\":{\"class_name\":\"Ones\",\"config\":{}},\"beta_regularizer\":null,\"gamma_regularizer\":null,\"beta_constraint\":null,\"gamma_constraint\":null,\"name\":\"batch_normalization_BatchNormalization20\",\"trainable\":true},\"inbound_nodes\":[[[\"conv2d_Conv2D13\",0,0,{}]]]},{\"name\":\"dropout_Dropout4\",\"class_name\":\"Dropout\",\"config\":{\"rate\":0.16666666666666669,\"noise_shape\":null,\"seed\":null,\"name\":\"dropout_Dropout4\",\"trainable\":true},\"inbound_nodes\":[[[\"batch_normalization_BatchNormalization20\",0,0,{}]]]},{\"name\":\"add_Add4\",\"class_name\":\"Add\",\"config\":{\"name\":\"add_Add4\",\"trainable\":true},\"inbound_nodes\":[[[\"dropout_Dropout4\",0,0,{}],[\"batch_normalization_BatchNormalization17\",0,0,{}]]]},{\"name\":\"conv2d_Conv2D14\",\"class_name\":\"Conv2D\",\"config\":{\"filters\":288,\"kernel_initializer\":{\"class_name\":\"VarianceScaling\",\"config\":{\"scale\":2,\"mode\":\"fan_in\",\"distribution\":\"normal\",\"seed\":null}},\"kernel_regularizer\":null,\"kernel_constraint\":null,\"kernel_size\":[1,1],\"strides\":[1,1],\"padding\":\"same\",\"data_format\":\"channels_last\",\"dilation_rate\":[1,1],\"activation\":\"linear\",\"use_bias\":false,\"bias_initializer\":{\"class_name\":\"Zeros\",\"config\":{}},\"bias_regularizer\":null,\"activity_regularizer\":null,\"bias_constraint\":null,\"name\":\"conv2d_Conv2D14\",\"trainable\":true},\"inbound_nodes\":[[[\"add_Add4\",0,0,{}]]]},{\"name\":\"batch_normalization_BatchNormalization21\",\"class_name\":\"BatchNormalization\",\"config\":{\"axis\":-1,\"momentum\":0.99,\"epsilon\":0.001,\"center\":true,\"scale\":true,\"beta_initializer\":{\"class_name\":\"Zeros\",\"config\":{}},\"gamma_initializer\":{\"class_name\":\"Ones\",\"config\":{}},\"moving_mean_initializer\":{\"class_name\":\"Zeros\",\"config\":{}},\"moving_variance_initializer\":{\"class_name\":\"Ones\",\"config\":{}},\"beta_regularizer\":null,\"gamma_regularizer\":null,\"beta_constraint\":null,\"gamma_constraint\":null,\"name\":\"batch_normalization_BatchNormalization21\",\"trainable\":true},\"inbound_nodes\":[[[\"conv2d_Conv2D14\",0,0,{}]]]},{\"name\":\"activation_Activation14\",\"class_name\":\"Activation\",\"config\":{\"activation\":\"swish\",\"name\":\"activation_Activation14\",\"trainable\":true},\"inbound_nodes\":[[[\"batch_normalization_BatchNormalization21\",0,0,{}]]]},{\"name\":\"depthwise_conv2d_DepthwiseConv2D8\",\"class_name\":\"DepthwiseConv2D\",\"config\":{\"kernel_size\":[5,5],\"strides\":[1,1],\"padding\":\"same\",\"data_format\":\"channels_last\",\"dilation_rate\":[1,1],\"activation\":\"linear\",\"use_bias\":false,\"bias_initializer\":{\"class_name\":\"Zeros\",\"config\":{}},\"bias_regularizer\":null,\"activity_regularizer\":null,\"bias_constraint\":null,\"name\":\"depthwise_conv2d_DepthwiseConv2D8\",\"trainable\":true,\"depth_multiplier\":1,\"depthwise_initializer\":{\"class_name\":\"VarianceScaling\",\"config\":{\"scale\":1,\"mode\":\"fan_avg\",\"distribution\":\"normal\",\"seed\":null}},\"depthwise_regularizer\":null,\"depthwise_constraint\":null},\"inbound_nodes\":[[[\"activation_Activation14\",0,0,{}]]]},{\"name\":\"batch_normalization_BatchNormalization22\",\"class_name\":\"BatchNormalization\",\"config\":{\"axis\":-1,\"momentum\":0.99,\"epsilon\":0.001,\"center\":true,\"scale\":true,\"beta_initializer\":{\"class_name\":\"Zeros\",\"config\":{}},\"gamma_initializer\":{\"class_name\":\"Ones\",\"config\":{}},\"moving_mean_initializer\":{\"class_name\":\"Zeros\",\"config\":{}},\"moving_variance_initializer\":{\"class_name\":\"Ones\",\"config\":{}},\"beta_regularizer\":null,\"gamma_regularizer\":null,\"beta_constraint\":null,\"gamma_constraint\":null,\"name\":\"batch_normalization_BatchNormalization22\",\"trainable\":true},\"inbound_nodes\":[[[\"depthwise_conv2d_DepthwiseConv2D8\",0,0,{}]]]},{\"name\":\"activation_Activation15\",\"class_name\":\"Activation\",\"config\":{\"activation\":\"swish\",\"name\":\"activation_Activation15\",\"trainable\":true},\"inbound_nodes\":[[[\"batch_normalization_BatchNormalization22\",0,0,{}]]]},{\"name\":\"global_average_pooling2d_GlobalAveragePooling2D8\",\"class_name\":\"GlobalAveragePooling2D\",\"config\":{\"data_format\":\"channels_last\",\"name\":\"global_average_pooling2d_GlobalAveragePooling2D8\",\"trainable\":true},\"inbound_nodes\":[[[\"activation_Activation15\",0,0,{}]]]},{\"name\":\"reshape_Reshape8\",\"class_name\":\"Reshape\",\"config\":{\"target_shape\":[1,1,288],\"name\":\"reshape_Reshape8\",\"trainable\":true},\"inbound_nodes\":[[[\"global_average_pooling2d_GlobalAveragePooling2D8\",0,0,{}]]]},{\"name\":\"dense_Dense15\",\"class_name\":\"Dense\",\"config\":{\"units\":12,\"activation\":\"swish\",\"use_bias\":true,\"kernel_initializer\":{\"class_name\":\"VarianceScaling\",\"config\":{\"scale\":2,\"mode\":\"fan_in\",\"distribution\":\"normal\",\"seed\":null}},\"bias_initializer\":{\"class_name\":\"Zeros\",\"config\":{}},\"kernel_regularizer\":null,\"bias_regularizer\":null,\"activity_regularizer\":null,\"kernel_constraint\":null,\"bias_constraint\":null,\"name\":\"dense_Dense15\",\"trainable\":true},\"inbound_nodes\":[[[\"reshape_Reshape8\",0,0,{}]]]},{\"name\":\"dense_Dense16\",\"class_name\":\"Dense\",\"config\":{\"units\":288,\"activation\":\"sigmoid\",\"use_bias\":true,\"kernel_initializer\":{\"class_name\":\"VarianceScaling\",\"config\":{\"scale\":2,\"mode\":\"fan_in\",\"distribution\":\"normal\",\"seed\":null}},\"bias_initializer\":{\"class_name\":\"Zeros\",\"config\":{}},\"kernel_regularizer\":null,\"bias_regularizer\":null,\"activity_regularizer\":null,\"kernel_constraint\":null,\"bias_constraint\":null,\"name\":\"dense_Dense16\",\"trainable\":true},\"inbound_nodes\":[[[\"dense_Dense15\",0,0,{}]]]},{\"name\":\"multiply_Multiply8\",\"class_name\":\"Multiply\",\"config\":{\"name\":\"multiply_Multiply8\",\"trainable\":true},\"inbound_nodes\":[[[\"activation_Activation15\",0,0,{}],[\"dense_Dense16\",0,0,{}]]]},{\"name\":\"conv2d_Conv2D15\",\"class_name\":\"Conv2D\",\"config\":{\"filters\":48,\"kernel_initializer\":{\"class_name\":\"VarianceScaling\",\"config\":{\"scale\":2,\"mode\":\"fan_in\",\"distribution\":\"normal\",\"seed\":null}},\"kernel_regularizer\":null,\"kernel_constraint\":null,\"kernel_size\":[1,1],\"strides\":[1,1],\"padding\":\"same\",\"data_format\":\"channels_last\",\"dilation_rate\":[1,1],\"activation\":\"linear\",\"use_bias\":false,\"bias_initializer\":{\"class_name\":\"Zeros\",\"config\":{}},\"bias_regularizer\":null,\"activity_regularizer\":null,\"bias_constraint\":null,\"name\":\"conv2d_Conv2D15\",\"trainable\":true},\"inbound_nodes\":[[[\"multiply_Multiply8\",0,0,{}]]]},{\"name\":\"batch_normalization_BatchNormalization23\",\"class_name\":\"BatchNormalization\",\"config\":{\"axis\":-1,\"momentum\":0.99,\"epsilon\":0.001,\"center\":true,\"scale\":true,\"beta_initializer\":{\"class_name\":\"Zeros\",\"config\":{}},\"gamma_initializer\":{\"class_name\":\"Ones\",\"config\":{}},\"moving_mean_initializer\":{\"class_name\":\"Zeros\",\"config\":{}},\"moving_variance_initializer\":{\"class_name\":\"Ones\",\"config\":{}},\"beta_regularizer\":null,\"gamma_regularizer\":null,\"beta_constraint\":null,\"gamma_constraint\":null,\"name\":\"batch_normalization_BatchNormalization23\",\"trainable\":true},\"inbound_nodes\":[[[\"conv2d_Conv2D15\",0,0,{}]]]},{\"name\":\"dropout_Dropout5\",\"class_name\":\"Dropout\",\"config\":{\"rate\":0.23333333333333334,\"noise_shape\":null,\"seed\":null,\"name\":\"dropout_Dropout5\",\"trainable\":true},\"inbound_nodes\":[[[\"batch_normalization_BatchNormalization23\",0,0,{}]]]},{\"name\":\"add_Add5\",\"class_name\":\"Add\",\"config\":{\"name\":\"add_Add5\",\"trainable\":true},\"inbound_nodes\":[[[\"dropout_Dropout5\",0,0,{}],[\"add_Add4\",0,0,{}]]]},{\"name\":\"conv2d_Conv2D16\",\"class_name\":\"Conv2D\",\"config\":{\"filters\":288,\"kernel_initializer\":{\"class_name\":\"VarianceScaling\",\"config\":{\"scale\":2,\"mode\":\"fan_in\",\"distribution\":\"normal\",\"seed\":null}},\"kernel_regularizer\":null,\"kernel_constraint\":null,\"kernel_size\":[1,1],\"strides\":[1,1],\"padding\":\"same\",\"data_format\":\"channels_last\",\"dilation_rate\":[1,1],\"activation\":\"linear\",\"use_bias\":false,\"bias_initializer\":{\"class_name\":\"Zeros\",\"config\":{}},\"bias_regularizer\":null,\"activity_regularizer\":null,\"bias_constraint\":null,\"name\":\"conv2d_Conv2D16\",\"trainable\":true},\"inbound_nodes\":[[[\"add_Add5\",0,0,{}]]]},{\"name\":\"batch_normalization_BatchNormalization24\",\"class_name\":\"BatchNormalization\",\"config\":{\"axis\":-1,\"momentum\":0.99,\"epsilon\":0.001,\"center\":true,\"scale\":true,\"beta_initializer\":{\"class_name\":\"Zeros\",\"config\":{}},\"gamma_initializer\":{\"class_name\":\"Ones\",\"config\":{}},\"moving_mean_initializer\":{\"class_name\":\"Zeros\",\"config\":{}},\"moving_variance_initializer\":{\"class_name\":\"Ones\",\"config\":{}},\"beta_regularizer\":null,\"gamma_regularizer\":null,\"beta_constraint\":null,\"gamma_constraint\":null,\"name\":\"batch_normalization_BatchNormalization24\",\"trainable\":true},\"inbound_nodes\":[[[\"conv2d_Conv2D16\",0,0,{}]]]},{\"name\":\"activation_Activation16\",\"class_name\":\"Activation\",\"config\":{\"activation\":\"swish\",\"name\":\"activation_Activation16\",\"trainable\":true},\"inbound_nodes\":[[[\"batch_normalization_BatchNormalization24\",0,0,{}]]]},{\"name\":\"depthwise_conv2d_DepthwiseConv2D9\",\"class_name\":\"DepthwiseConv2D\",\"config\":{\"kernel_size\":[3,3],\"strides\":[2,2],\"padding\":\"same\",\"data_format\":\"channels_last\",\"dilation_rate\":[1,1],\"activation\":\"linear\",\"use_bias\":false,\"bias_initializer\":{\"class_name\":\"Zeros\",\"config\":{}},\"bias_regularizer\":null,\"activity_regularizer\":null,\"bias_constraint\":null,\"name\":\"depthwise_conv2d_DepthwiseConv2D9\",\"trainable\":true,\"depth_multiplier\":1,\"depthwise_initializer\":{\"class_name\":\"VarianceScaling\",\"config\":{\"scale\":1,\"mode\":\"fan_avg\",\"distribution\":\"normal\",\"seed\":null}},\"depthwise_regularizer\":null,\"depthwise_constraint\":null},\"inbound_nodes\":[[[\"activation_Activation16\",0,0,{}]]]},{\"name\":\"batch_normalization_BatchNormalization25\",\"class_name\":\"BatchNormalization\",\"config\":{\"axis\":-1,\"momentum\":0.99,\"epsilon\":0.001,\"center\":true,\"scale\":true,\"beta_initializer\":{\"class_name\":\"Zeros\",\"config\":{}},\"gamma_initializer\":{\"class_name\":\"Ones\",\"config\":{}},\"moving_mean_initializer\":{\"class_name\":\"Zeros\",\"config\":{}},\"moving_variance_initializer\":{\"class_name\":\"Ones\",\"config\":{}},\"beta_regularizer\":null,\"gamma_regularizer\":null,\"beta_constraint\":null,\"gamma_constraint\":null,\"name\":\"batch_normalization_BatchNormalization25\",\"trainable\":true},\"inbound_nodes\":[[[\"depthwise_conv2d_DepthwiseConv2D9\",0,0,{}]]]},{\"name\":\"activation_Activation17\",\"class_name\":\"Activation\",\"config\":{\"activation\":\"swish\",\"name\":\"activation_Activation17\",\"trainable\":true},\"inbound_nodes\":[[[\"batch_normalization_BatchNormalization25\",0,0,{}]]]},{\"name\":\"global_average_pooling2d_GlobalAveragePooling2D9\",\"class_name\":\"GlobalAveragePooling2D\",\"config\":{\"data_format\":\"channels_last\",\"name\":\"global_average_pooling2d_GlobalAveragePooling2D9\",\"trainable\":true},\"inbound_nodes\":[[[\"activation_Activation17\",0,0,{}]]]},{\"name\":\"reshape_Reshape9\",\"class_name\":\"Reshape\",\"config\":{\"target_shape\":[1,1,288],\"name\":\"reshape_Reshape9\",\"trainable\":true},\"inbound_nodes\":[[[\"global_average_pooling2d_GlobalAveragePooling2D9\",0,0,{}]]]},{\"name\":\"dense_Dense17\",\"class_name\":\"Dense\",\"config\":{\"units\":12,\"activation\":\"swish\",\"use_bias\":true,\"kernel_initializer\":{\"class_name\":\"VarianceScaling\",\"config\":{\"scale\":2,\"mode\":\"fan_in\",\"distribution\":\"normal\",\"seed\":null}},\"bias_initializer\":{\"class_name\":\"Zeros\",\"config\":{}},\"kernel_regularizer\":null,\"bias_regularizer\":null,\"activity_regularizer\":null,\"kernel_constraint\":null,\"bias_constraint\":null,\"name\":\"dense_Dense17\",\"trainable\":true},\"inbound_nodes\":[[[\"reshape_Reshape9\",0,0,{}]]]},{\"name\":\"dense_Dense18\",\"class_name\":\"Dense\",\"config\":{\"units\":288,\"activation\":\"sigmoid\",\"use_bias\":true,\"kernel_initializer\":{\"class_name\":\"VarianceScaling\",\"config\":{\"scale\":2,\"mode\":\"fan_in\",\"distribution\":\"normal\",\"seed\":null}},\"bias_initializer\":{\"class_name\":\"Zeros\",\"config\":{}},\"kernel_regularizer\":null,\"bias_regularizer\":null,\"activity_regularizer\":null,\"kernel_constraint\":null,\"bias_constraint\":null,\"name\":\"dense_Dense18\",\"trainable\":true},\"inbound_nodes\":[[[\"dense_Dense17\",0,0,{}]]]},{\"name\":\"multiply_Multiply9\",\"class_name\":\"Multiply\",\"config\":{\"name\":\"multiply_Multiply9\",\"trainable\":true},\"inbound_nodes\":[[[\"activation_Activation17\",0,0,{}],[\"dense_Dense18\",0,0,{}]]]},{\"name\":\"conv2d_Conv2D17\",\"class_name\":\"Conv2D\",\"config\":{\"filters\":96,\"kernel_initializer\":{\"class_name\":\"VarianceScaling\",\"config\":{\"scale\":2,\"mode\":\"fan_in\",\"distribution\":\"normal\",\"seed\":null}},\"kernel_regularizer\":null,\"kernel_constraint\":null,\"kernel_size\":[1,1],\"strides\":[1,1],\"padding\":\"same\",\"data_format\":\"channels_last\",\"dilation_rate\":[1,1],\"activation\":\"linear\",\"use_bias\":false,\"bias_initializer\":{\"class_name\":\"Zeros\",\"config\":{}},\"bias_regularizer\":null,\"activity_regularizer\":null,\"bias_constraint\":null,\"name\":\"conv2d_Conv2D17\",\"trainable\":true},\"inbound_nodes\":[[[\"multiply_Multiply9\",0,0,{}]]]},{\"name\":\"batch_normalization_BatchNormalization26\",\"class_name\":\"BatchNormalization\",\"config\":{\"axis\":-1,\"momentum\":0.99,\"epsilon\":0.001,\"center\":true,\"scale\":true,\"beta_initializer\":{\"class_name\":\"Zeros\",\"config\":{}},\"gamma_initializer\":{\"class_name\":\"Ones\",\"config\":{}},\"moving_mean_initializer\":{\"class_name\":\"Zeros\",\"config\":{}},\"moving_variance_initializer\":{\"class_name\":\"Ones\",\"config\":{}},\"beta_regularizer\":null,\"gamma_regularizer\":null,\"beta_constraint\":null,\"gamma_constraint\":null,\"name\":\"batch_normalization_BatchNormalization26\",\"trainable\":true},\"inbound_nodes\":[[[\"conv2d_Conv2D17\",0,0,{}]]]},{\"name\":\"conv2d_Conv2D18\",\"class_name\":\"Conv2D\",\"config\":{\"filters\":576,\"kernel_initializer\":{\"class_name\":\"VarianceScaling\",\"config\":{\"scale\":2,\"mode\":\"fan_in\",\"distribution\":\"normal\",\"seed\":null}},\"kernel_regularizer\":null,\"kernel_constraint\":null,\"kernel_size\":[1,1],\"strides\":[1,1],\"padding\":\"same\",\"data_format\":\"channels_last\",\"dilation_rate\":[1,1],\"activation\":\"linear\",\"use_bias\":false,\"bias_initializer\":{\"class_name\":\"Zeros\",\"config\":{}},\"bias_regularizer\":null,\"activity_regularizer\":null,\"bias_constraint\":null,\"name\":\"conv2d_Conv2D18\",\"trainable\":true},\"inbound_nodes\":[[[\"batch_normalization_BatchNormalization26\",0,0,{}]]]},{\"name\":\"batch_normalization_BatchNormalization27\",\"class_name\":\"BatchNormalization\",\"config\":{\"axis\":-1,\"momentum\":0.99,\"epsilon\":0.001,\"center\":true,\"scale\":true,\"beta_initializer\":{\"class_name\":\"Zeros\",\"config\":{}},\"gamma_initializer\":{\"class_name\":\"Ones\",\"config\":{}},\"moving_mean_initializer\":{\"class_name\":\"Zeros\",\"config\":{}},\"moving_variance_initializer\":{\"class_name\":\"Ones\",\"config\":{}},\"beta_regularizer\":null,\"gamma_regularizer\":null,\"beta_constraint\":null,\"gamma_constraint\":null,\"name\":\"batch_normalization_BatchNormalization27\",\"trainable\":true},\"inbound_nodes\":[[[\"conv2d_Conv2D18\",0,0,{}]]]},{\"name\":\"activation_Activation18\",\"class_name\":\"Activation\",\"config\":{\"activation\":\"swish\",\"name\":\"activation_Activation18\",\"trainable\":true},\"inbound_nodes\":[[[\"batch_normalization_BatchNormalization27\",0,0,{}]]]},{\"name\":\"depthwise_conv2d_DepthwiseConv2D10\",\"class_name\":\"DepthwiseConv2D\",\"config\":{\"kernel_size\":[3,3],\"strides\":[1,1],\"padding\":\"same\",\"data_format\":\"channels_last\",\"dilation_rate\":[1,1],\"activation\":\"linear\",\"use_bias\":false,\"bias_initializer\":{\"class_name\":\"Zeros\",\"config\":{}},\"bias_regularizer\":null,\"activity_regularizer\":null,\"bias_constraint\":null,\"name\":\"depthwise_conv2d_DepthwiseConv2D10\",\"trainable\":true,\"depth_multiplier\":1,\"depthwise_initializer\":{\"class_name\":\"VarianceScaling\",\"config\":{\"scale\":1,\"mode\":\"fan_avg\",\"distribution\":\"normal\",\"seed\":null}},\"depthwise_regularizer\":null,\"depthwise_constraint\":null},\"inbound_nodes\":[[[\"activation_Activation18\",0,0,{}]]]},{\"name\":\"batch_normalization_BatchNormalization28\",\"class_name\":\"BatchNormalization\",\"config\":{\"axis\":-1,\"momentum\":0.99,\"epsilon\":0.001,\"center\":true,\"scale\":true,\"beta_initializer\":{\"class_name\":\"Zeros\",\"config\":{}},\"gamma_initializer\":{\"class_name\":\"Ones\",\"config\":{}},\"moving_mean_initializer\":{\"class_name\":\"Zeros\",\"config\":{}},\"moving_variance_initializer\":{\"class_name\":\"Ones\",\"config\":{}},\"beta_regularizer\":null,\"gamma_regularizer\":null,\"beta_constraint\":null,\"gamma_constraint\":null,\"name\":\"batch_normalization_BatchNormalization28\",\"trainable\":true},\"inbound_nodes\":[[[\"depthwise_conv2d_DepthwiseConv2D10\",0,0,{}]]]},{\"name\":\"activation_Activation19\",\"class_name\":\"Activation\",\"config\":{\"activation\":\"swish\",\"name\":\"activation_Activation19\",\"trainable\":true},\"inbound_nodes\":[[[\"batch_normalization_BatchNormalization28\",0,0,{}]]]},{\"name\":\"global_average_pooling2d_GlobalAveragePooling2D10\",\"class_name\":\"GlobalAveragePooling2D\",\"config\":{\"data_format\":\"channels_last\",\"name\":\"global_average_pooling2d_GlobalAveragePooling2D10\",\"trainable\":true},\"inbound_nodes\":[[[\"activation_Activation19\",0,0,{}]]]},{\"name\":\"reshape_Reshape10\",\"class_name\":\"Reshape\",\"config\":{\"target_shape\":[1,1,576],\"name\":\"reshape_Reshape10\",\"trainable\":true},\"inbound_nodes\":[[[\"global_average_pooling2d_GlobalAveragePooling2D10\",0,0,{}]]]},{\"name\":\"dense_Dense19\",\"class_name\":\"Dense\",\"config\":{\"units\":24,\"activation\":\"swish\",\"use_bias\":true,\"kernel_initializer\":{\"class_name\":\"VarianceScaling\",\"config\":{\"scale\":2,\"mode\":\"fan_in\",\"distribution\":\"normal\",\"seed\":null}},\"bias_initializer\":{\"class_name\":\"Zeros\",\"config\":{}},\"kernel_regularizer\":null,\"bias_regularizer\":null,\"activity_regularizer\":null,\"kernel_constraint\":null,\"bias_constraint\":null,\"name\":\"dense_Dense19\",\"trainable\":true},\"inbound_nodes\":[[[\"reshape_Reshape10\",0,0,{}]]]},{\"name\":\"dense_Dense20\",\"class_name\":\"Dense\",\"config\":{\"units\":576,\"activation\":\"sigmoid\",\"use_bias\":true,\"kernel_initializer\":{\"class_name\":\"VarianceScaling\",\"config\":{\"scale\":2,\"mode\":\"fan_in\",\"distribution\":\"normal\",\"seed\":null}},\"bias_initializer\":{\"class_name\":\"Zeros\",\"config\":{}},\"kernel_regularizer\":null,\"bias_regularizer\":null,\"activity_regularizer\":null,\"kernel_constraint\":null,\"bias_constraint\":null,\"name\":\"dense_Dense20\",\"trainable\":true},\"inbound_nodes\":[[[\"dense_Dense19\",0,0,{}]]]},{\"name\":\"multiply_Multiply10\",\"class_name\":\"Multiply\",\"config\":{\"name\":\"multiply_Multiply10\",\"trainable\":true},\"inbound_nodes\":[[[\"activation_Activation19\",0,0,{}],[\"dense_Dense20\",0,0,{}]]]},{\"name\":\"conv2d_Conv2D19\",\"class_name\":\"Conv2D\",\"config\":{\"filters\":96,\"kernel_initializer\":{\"class_name\":\"VarianceScaling\",\"config\":{\"scale\":2,\"mode\":\"fan_in\",\"distribution\":\"normal\",\"seed\":null}},\"kernel_regularizer\":null,\"kernel_constraint\":null,\"kernel_size\":[1,1],\"strides\":[1,1],\"padding\":\"same\",\"data_format\":\"channels_last\",\"dilation_rate\":[1,1],\"activation\":\"linear\",\"use_bias\":false,\"bias_initializer\":{\"class_name\":\"Zeros\",\"config\":{}},\"bias_regularizer\":null,\"activity_regularizer\":null,\"bias_constraint\":null,\"name\":\"conv2d_Conv2D19\",\"trainable\":true},\"inbound_nodes\":[[[\"multiply_Multiply10\",0,0,{}]]]},{\"name\":\"batch_normalization_BatchNormalization29\",\"class_name\":\"BatchNormalization\",\"config\":{\"axis\":-1,\"momentum\":0.99,\"epsilon\":0.001,\"center\":true,\"scale\":true,\"beta_initializer\":{\"class_name\":\"Zeros\",\"config\":{}},\"gamma_initializer\":{\"class_name\":\"Ones\",\"config\":{}},\"moving_mean_initializer\":{\"class_name\":\"Zeros\",\"config\":{}},\"moving_variance_initializer\":{\"class_name\":\"Ones\",\"config\":{}},\"beta_regularizer\":null,\"gamma_regularizer\":null,\"beta_constraint\":null,\"gamma_constraint\":null,\"name\":\"batch_normalization_BatchNormalization29\",\"trainable\":true},\"inbound_nodes\":[[[\"conv2d_Conv2D19\",0,0,{}]]]},{\"name\":\"dropout_Dropout6\",\"class_name\":\"Dropout\",\"config\":{\"rate\":0.14,\"noise_shape\":null,\"seed\":null,\"name\":\"dropout_Dropout6\",\"trainable\":true},\"inbound_nodes\":[[[\"batch_normalization_BatchNormalization29\",0,0,{}]]]},{\"name\":\"add_Add6\",\"class_name\":\"Add\",\"config\":{\"name\":\"add_Add6\",\"trainable\":true},\"inbound_nodes\":[[[\"dropout_Dropout6\",0,0,{}],[\"batch_normalization_BatchNormalization26\",0,0,{}]]]},{\"name\":\"conv2d_Conv2D20\",\"class_name\":\"Conv2D\",\"config\":{\"filters\":576,\"kernel_initializer\":{\"class_name\":\"VarianceScaling\",\"config\":{\"scale\":2,\"mode\":\"fan_in\",\"distribution\":\"normal\",\"seed\":null}},\"kernel_regularizer\":null,\"kernel_constraint\":null,\"kernel_size\":[1,1],\"strides\":[1,1],\"padding\":\"same\",\"data_format\":\"channels_last\",\"dilation_rate\":[1,1],\"activation\":\"linear\",\"use_bias\":false,\"bias_initializer\":{\"class_name\":\"Zeros\",\"config\":{}},\"bias_regularizer\":null,\"activity_regularizer\":null,\"bias_constraint\":null,\"name\":\"conv2d_Conv2D20\",\"trainable\":true},\"inbound_nodes\":[[[\"add_Add6\",0,0,{}]]]},{\"name\":\"batch_normalization_BatchNormalization30\",\"class_name\":\"BatchNormalization\",\"config\":{\"axis\":-1,\"momentum\":0.99,\"epsilon\":0.001,\"center\":true,\"scale\":true,\"beta_initializer\":{\"class_name\":\"Zeros\",\"config\":{}},\"gamma_initializer\":{\"class_name\":\"Ones\",\"config\":{}},\"moving_mean_initializer\":{\"class_name\":\"Zeros\",\"config\":{}},\"moving_variance_initializer\":{\"class_name\":\"Ones\",\"config\":{}},\"beta_regularizer\":null,\"gamma_regularizer\":null,\"beta_constraint\":null,\"gamma_constraint\":null,\"name\":\"batch_normalization_BatchNormalization30\",\"trainable\":true},\"inbound_nodes\":[[[\"conv2d_Conv2D20\",0,0,{}]]]},{\"name\":\"activation_Activation20\",\"class_name\":\"Activation\",\"config\":{\"activation\":\"swish\",\"name\":\"activation_Activation20\",\"trainable\":true},\"inbound_nodes\":[[[\"batch_normalization_BatchNormalization30\",0,0,{}]]]},{\"name\":\"depthwise_conv2d_DepthwiseConv2D11\",\"class_name\":\"DepthwiseConv2D\",\"config\":{\"kernel_size\":[3,3],\"strides\":[1,1],\"padding\":\"same\",\"data_format\":\"channels_last\",\"dilation_rate\":[1,1],\"activation\":\"linear\",\"use_bias\":false,\"bias_initializer\":{\"class_name\":\"Zeros\",\"config\":{}},\"bias_regularizer\":null,\"activity_regularizer\":null,\"bias_constraint\":null,\"name\":\"depthwise_conv2d_DepthwiseConv2D11\",\"trainable\":true,\"depth_multiplier\":1,\"depthwise_initializer\":{\"class_name\":\"VarianceScaling\",\"config\":{\"scale\":1,\"mode\":\"fan_avg\",\"distribution\":\"normal\",\"seed\":null}},\"depthwise_regularizer\":null,\"depthwise_constraint\":null},\"inbound_nodes\":[[[\"activation_Activation20\",0,0,{}]]]},{\"name\":\"batch_normalization_BatchNormalization31\",\"class_name\":\"BatchNormalization\",\"config\":{\"axis\":-1,\"momentum\":0.99,\"epsilon\":0.001,\"center\":true,\"scale\":true,\"beta_initializer\":{\"class_name\":\"Zeros\",\"config\":{}},\"gamma_initializer\":{\"class_name\":\"Ones\",\"config\":{}},\"moving_mean_initializer\":{\"class_name\":\"Zeros\",\"config\":{}},\"moving_variance_initializer\":{\"class_name\":\"Ones\",\"config\":{}},\"beta_regularizer\":null,\"gamma_regularizer\":null,\"beta_constraint\":null,\"gamma_constraint\":null,\"name\":\"batch_normalization_BatchNormalization31\",\"trainable\":true},\"inbound_nodes\":[[[\"depthwise_conv2d_DepthwiseConv2D11\",0,0,{}]]]},{\"name\":\"activation_Activation21\",\"class_name\":\"Activation\",\"config\":{\"activation\":\"swish\",\"name\":\"activation_Activation21\",\"trainable\":true},\"inbound_nodes\":[[[\"batch_normalization_BatchNormalization31\",0,0,{}]]]},{\"name\":\"global_average_pooling2d_GlobalAveragePooling2D11\",\"class_name\":\"GlobalAveragePooling2D\",\"config\":{\"data_format\":\"channels_last\",\"name\":\"global_average_pooling2d_GlobalAveragePooling2D11\",\"trainable\":true},\"inbound_nodes\":[[[\"activation_Activation21\",0,0,{}]]]},{\"name\":\"reshape_Reshape11\",\"class_name\":\"Reshape\",\"config\":{\"target_shape\":[1,1,576],\"name\":\"reshape_Reshape11\",\"trainable\":true},\"inbound_nodes\":[[[\"global_average_pooling2d_GlobalAveragePooling2D11\",0,0,{}]]]},{\"name\":\"dense_Dense21\",\"class_name\":\"Dense\",\"config\":{\"units\":24,\"activation\":\"swish\",\"use_bias\":true,\"kernel_initializer\":{\"class_name\":\"VarianceScaling\",\"config\":{\"scale\":2,\"mode\":\"fan_in\",\"distribution\":\"normal\",\"seed\":null}},\"bias_initializer\":{\"class_name\":\"Zeros\",\"config\":{}},\"kernel_regularizer\":null,\"bias_regularizer\":null,\"activity_regularizer\":null,\"kernel_constraint\":null,\"bias_constraint\":null,\"name\":\"dense_Dense21\",\"trainable\":true},\"inbound_nodes\":[[[\"reshape_Reshape11\",0,0,{}]]]},{\"name\":\"dense_Dense22\",\"class_name\":\"Dense\",\"config\":{\"units\":576,\"activation\":\"sigmoid\",\"use_bias\":true,\"kernel_initializer\":{\"class_name\":\"VarianceScaling\",\"config\":{\"scale\":2,\"mode\":\"fan_in\",\"distribution\":\"normal\",\"seed\":null}},\"bias_initializer\":{\"class_name\":\"Zeros\",\"config\":{}},\"kernel_regularizer\":null,\"bias_regularizer\":null,\"activity_regularizer\":null,\"kernel_constraint\":null,\"bias_constraint\":null,\"name\":\"dense_Dense22\",\"trainable\":true},\"inbound_nodes\":[[[\"dense_Dense21\",0,0,{}]]]},{\"name\":\"multiply_Multiply11\",\"class_name\":\"Multiply\",\"config\":{\"name\":\"multiply_Multiply11\",\"trainable\":true},\"inbound_nodes\":[[[\"activation_Activation21\",0,0,{}],[\"dense_Dense22\",0,0,{}]]]},{\"name\":\"conv2d_Conv2D21\",\"class_name\":\"Conv2D\",\"config\":{\"filters\":96,\"kernel_initializer\":{\"class_name\":\"VarianceScaling\",\"config\":{\"scale\":2,\"mode\":\"fan_in\",\"distribution\":\"normal\",\"seed\":null}},\"kernel_regularizer\":null,\"kernel_constraint\":null,\"kernel_size\":[1,1],\"strides\":[1,1],\"padding\":\"same\",\"data_format\":\"channels_last\",\"dilation_rate\":[1,1],\"activation\":\"linear\",\"use_bias\":false,\"bias_initializer\":{\"class_name\":\"Zeros\",\"config\":{}},\"bias_regularizer\":null,\"activity_regularizer\":null,\"bias_constraint\":null,\"name\":\"conv2d_Conv2D21\",\"trainable\":true},\"inbound_nodes\":[[[\"multiply_Multiply11\",0,0,{}]]]},{\"name\":\"batch_normalization_BatchNormalization32\",\"class_name\":\"BatchNormalization\",\"config\":{\"axis\":-1,\"momentum\":0.99,\"epsilon\":0.001,\"center\":true,\"scale\":true,\"beta_initializer\":{\"class_name\":\"Zeros\",\"config\":{}},\"gamma_initializer\":{\"class_name\":\"Ones\",\"config\":{}},\"moving_mean_initializer\":{\"class_name\":\"Zeros\",\"config\":{}},\"moving_variance_initializer\":{\"class_name\":\"Ones\",\"config\":{}},\"beta_regularizer\":null,\"gamma_regularizer\":null,\"beta_constraint\":null,\"gamma_constraint\":null,\"name\":\"batch_normalization_BatchNormalization32\",\"trainable\":true},\"inbound_nodes\":[[[\"conv2d_Conv2D21\",0,0,{}]]]},{\"name\":\"dropout_Dropout7\",\"class_name\":\"Dropout\",\"config\":{\"rate\":0.18000000000000002,\"noise_shape\":null,\"seed\":null,\"name\":\"dropout_Dropout7\",\"trainable\":true},\"inbound_nodes\":[[[\"batch_normalization_BatchNormalization32\",0,0,{}]]]},{\"name\":\"add_Add7\",\"class_name\":\"Add\",\"config\":{\"name\":\"add_Add7\",\"trainable\":true},\"inbound_nodes\":[[[\"dropout_Dropout7\",0,0,{}],[\"add_Add6\",0,0,{}]]]},{\"name\":\"conv2d_Conv2D22\",\"class_name\":\"Conv2D\",\"config\":{\"filters\":576,\"kernel_initializer\":{\"class_name\":\"VarianceScaling\",\"config\":{\"scale\":2,\"mode\":\"fan_in\",\"distribution\":\"normal\",\"seed\":null}},\"kernel_regularizer\":null,\"kernel_constraint\":null,\"kernel_size\":[1,1],\"strides\":[1,1],\"padding\":\"same\",\"data_format\":\"channels_last\",\"dilation_rate\":[1,1],\"activation\":\"linear\",\"use_bias\":false,\"bias_initializer\":{\"class_name\":\"Zeros\",\"config\":{}},\"bias_regularizer\":null,\"activity_regularizer\":null,\"bias_constraint\":null,\"name\":\"conv2d_Conv2D22\",\"trainable\":true},\"inbound_nodes\":[[[\"add_Add7\",0,0,{}]]]},{\"name\":\"batch_normalization_BatchNormalization33\",\"class_name\":\"BatchNormalization\",\"config\":{\"axis\":-1,\"momentum\":0.99,\"epsilon\":0.001,\"center\":true,\"scale\":true,\"beta_initializer\":{\"class_name\":\"Zeros\",\"config\":{}},\"gamma_initializer\":{\"class_name\":\"Ones\",\"config\":{}},\"moving_mean_initializer\":{\"class_name\":\"Zeros\",\"config\":{}},\"moving_variance_initializer\":{\"class_name\":\"Ones\",\"config\":{}},\"beta_regularizer\":null,\"gamma_regularizer\":null,\"beta_constraint\":null,\"gamma_constraint\":null,\"name\":\"batch_normalization_BatchNormalization33\",\"trainable\":true},\"inbound_nodes\":[[[\"conv2d_Conv2D22\",0,0,{}]]]},{\"name\":\"activation_Activation22\",\"class_name\":\"Activation\",\"config\":{\"activation\":\"swish\",\"name\":\"activation_Activation22\",\"trainable\":true},\"inbound_nodes\":[[[\"batch_normalization_BatchNormalization33\",0,0,{}]]]},{\"name\":\"depthwise_conv2d_DepthwiseConv2D12\",\"class_name\":\"DepthwiseConv2D\",\"config\":{\"kernel_size\":[3,3],\"strides\":[1,1],\"padding\":\"same\",\"data_format\":\"channels_last\",\"dilation_rate\":[1,1],\"activation\":\"linear\",\"use_bias\":false,\"bias_initializer\":{\"class_name\":\"Zeros\",\"config\":{}},\"bias_regularizer\":null,\"activity_regularizer\":null,\"bias_constraint\":null,\"name\":\"depthwise_conv2d_DepthwiseConv2D12\",\"trainable\":true,\"depth_multiplier\":1,\"depthwise_initializer\":{\"class_name\":\"VarianceScaling\",\"config\":{\"scale\":1,\"mode\":\"fan_avg\",\"distribution\":\"normal\",\"seed\":null}},\"depthwise_regularizer\":null,\"depthwise_constraint\":null},\"inbound_nodes\":[[[\"activation_Activation22\",0,0,{}]]]},{\"name\":\"batch_normalization_BatchNormalization34\",\"class_name\":\"BatchNormalization\",\"config\":{\"axis\":-1,\"momentum\":0.99,\"epsilon\":0.001,\"center\":true,\"scale\":true,\"beta_initializer\":{\"class_name\":\"Zeros\",\"config\":{}},\"gamma_initializer\":{\"class_name\":\"Ones\",\"config\":{}},\"moving_mean_initializer\":{\"class_name\":\"Zeros\",\"config\":{}},\"moving_variance_initializer\":{\"class_name\":\"Ones\",\"config\":{}},\"beta_regularizer\":null,\"gamma_regularizer\":null,\"beta_constraint\":null,\"gamma_constraint\":null,\"name\":\"batch_normalization_BatchNormalization34\",\"trainable\":true},\"inbound_nodes\":[[[\"depthwise_conv2d_DepthwiseConv2D12\",0,0,{}]]]},{\"name\":\"activation_Activation23\",\"class_name\":\"Activation\",\"config\":{\"activation\":\"swish\",\"name\":\"activation_Activation23\",\"trainable\":true},\"inbound_nodes\":[[[\"batch_normalization_BatchNormalization34\",0,0,{}]]]},{\"name\":\"global_average_pooling2d_GlobalAveragePooling2D12\",\"class_name\":\"GlobalAveragePooling2D\",\"config\":{\"data_format\":\"channels_last\",\"name\":\"global_average_pooling2d_GlobalAveragePooling2D12\",\"trainable\":true},\"inbound_nodes\":[[[\"activation_Activation23\",0,0,{}]]]},{\"name\":\"reshape_Reshape12\",\"class_name\":\"Reshape\",\"config\":{\"target_shape\":[1,1,576],\"name\":\"reshape_Reshape12\",\"trainable\":true},\"inbound_nodes\":[[[\"global_average_pooling2d_GlobalAveragePooling2D12\",0,0,{}]]]},{\"name\":\"dense_Dense23\",\"class_name\":\"Dense\",\"config\":{\"units\":24,\"activation\":\"swish\",\"use_bias\":true,\"kernel_initializer\":{\"class_name\":\"VarianceScaling\",\"config\":{\"scale\":2,\"mode\":\"fan_in\",\"distribution\":\"normal\",\"seed\":null}},\"bias_initializer\":{\"class_name\":\"Zeros\",\"config\":{}},\"kernel_regularizer\":null,\"bias_regularizer\":null,\"activity_regularizer\":null,\"kernel_constraint\":null,\"bias_constraint\":null,\"name\":\"dense_Dense23\",\"trainable\":true},\"inbound_nodes\":[[[\"reshape_Reshape12\",0,0,{}]]]},{\"name\":\"dense_Dense24\",\"class_name\":\"Dense\",\"config\":{\"units\":576,\"activation\":\"sigmoid\",\"use_bias\":true,\"kernel_initializer\":{\"class_name\":\"VarianceScaling\",\"config\":{\"scale\":2,\"mode\":\"fan_in\",\"distribution\":\"normal\",\"seed\":null}},\"bias_initializer\":{\"class_name\":\"Zeros\",\"config\":{}},\"kernel_regularizer\":null,\"bias_regularizer\":null,\"activity_regularizer\":null,\"kernel_constraint\":null,\"bias_constraint\":null,\"name\":\"dense_Dense24\",\"trainable\":true},\"inbound_nodes\":[[[\"dense_Dense23\",0,0,{}]]]},{\"name\":\"multiply_Multiply12\",\"class_name\":\"Multiply\",\"config\":{\"name\":\"multiply_Multiply12\",\"trainable\":true},\"inbound_nodes\":[[[\"activation_Activation23\",0,0,{}],[\"dense_Dense24\",0,0,{}]]]},{\"name\":\"conv2d_Conv2D23\",\"class_name\":\"Conv2D\",\"config\":{\"filters\":96,\"kernel_initializer\":{\"class_name\":\"VarianceScaling\",\"config\":{\"scale\":2,\"mode\":\"fan_in\",\"distribution\":\"normal\",\"seed\":null}},\"kernel_regularizer\":null,\"kernel_constraint\":null,\"kernel_size\":[1,1],\"strides\":[1,1],\"padding\":\"same\",\"data_format\":\"channels_last\",\"dilation_rate\":[1,1],\"activation\":\"linear\",\"use_bias\":false,\"bias_initializer\":{\"class_name\":\"Zeros\",\"config\":{}},\"bias_regularizer\":null,\"activity_regularizer\":null,\"bias_constraint\":null,\"name\":\"conv2d_Conv2D23\",\"trainable\":true},\"inbound_nodes\":[[[\"multiply_Multiply12\",0,0,{}]]]},{\"name\":\"batch_normalization_BatchNormalization35\",\"class_name\":\"BatchNormalization\",\"config\":{\"axis\":-1,\"momentum\":0.99,\"epsilon\":0.001,\"center\":true,\"scale\":true,\"beta_initializer\":{\"class_name\":\"Zeros\",\"config\":{}},\"gamma_initializer\":{\"class_name\":\"Ones\",\"config\":{}},\"moving_mean_initializer\":{\"class_name\":\"Zeros\",\"config\":{}},\"moving_variance_initializer\":{\"class_name\":\"Ones\",\"config\":{}},\"beta_regularizer\":null,\"gamma_regularizer\":null,\"beta_constraint\":null,\"gamma_constraint\":null,\"name\":\"batch_normalization_BatchNormalization35\",\"trainable\":true},\"inbound_nodes\":[[[\"conv2d_Conv2D23\",0,0,{}]]]},{\"name\":\"dropout_Dropout8\",\"class_name\":\"Dropout\",\"config\":{\"rate\":0.22,\"noise_shape\":null,\"seed\":null,\"name\":\"dropout_Dropout8\",\"trainable\":true},\"inbound_nodes\":[[[\"batch_normalization_BatchNormalization35\",0,0,{}]]]},{\"name\":\"add_Add8\",\"class_name\":\"Add\",\"config\":{\"name\":\"add_Add8\",\"trainable\":true},\"inbound_nodes\":[[[\"dropout_Dropout8\",0,0,{}],[\"add_Add7\",0,0,{}]]]},{\"name\":\"conv2d_Conv2D24\",\"class_name\":\"Conv2D\",\"config\":{\"filters\":576,\"kernel_initializer\":{\"class_name\":\"VarianceScaling\",\"config\":{\"scale\":2,\"mode\":\"fan_in\",\"distribution\":\"normal\",\"seed\":null}},\"kernel_regularizer\":null,\"kernel_constraint\":null,\"kernel_size\":[1,1],\"strides\":[1,1],\"padding\":\"same\",\"data_format\":\"channels_last\",\"dilation_rate\":[1,1],\"activation\":\"linear\",\"use_bias\":false,\"bias_initializer\":{\"class_name\":\"Zeros\",\"config\":{}},\"bias_regularizer\":null,\"activity_regularizer\":null,\"bias_constraint\":null,\"name\":\"conv2d_Conv2D24\",\"trainable\":true},\"inbound_nodes\":[[[\"add_Add8\",0,0,{}]]]},{\"name\":\"batch_normalization_BatchNormalization36\",\"class_name\":\"BatchNormalization\",\"config\":{\"axis\":-1,\"momentum\":0.99,\"epsilon\":0.001,\"center\":true,\"scale\":true,\"beta_initializer\":{\"class_name\":\"Zeros\",\"config\":{}},\"gamma_initializer\":{\"class_name\":\"Ones\",\"config\":{}},\"moving_mean_initializer\":{\"class_name\":\"Zeros\",\"config\":{}},\"moving_variance_initializer\":{\"class_name\":\"Ones\",\"config\":{}},\"beta_regularizer\":null,\"gamma_regularizer\":null,\"beta_constraint\":null,\"gamma_constraint\":null,\"name\":\"batch_normalization_BatchNormalization36\",\"trainable\":true},\"inbound_nodes\":[[[\"conv2d_Conv2D24\",0,0,{}]]]},{\"name\":\"activation_Activation24\",\"class_name\":\"Activation\",\"config\":{\"activation\":\"swish\",\"name\":\"activation_Activation24\",\"trainable\":true},\"inbound_nodes\":[[[\"batch_normalization_BatchNormalization36\",0,0,{}]]]},{\"name\":\"depthwise_conv2d_DepthwiseConv2D13\",\"class_name\":\"DepthwiseConv2D\",\"config\":{\"kernel_size\":[3,3],\"strides\":[1,1],\"padding\":\"same\",\"data_format\":\"channels_last\",\"dilation_rate\":[1,1],\"activation\":\"linear\",\"use_bias\":false,\"bias_initializer\":{\"class_name\":\"Zeros\",\"config\":{}},\"bias_regularizer\":null,\"activity_regularizer\":null,\"bias_constraint\":null,\"name\":\"depthwise_conv2d_DepthwiseConv2D13\",\"trainable\":true,\"depth_multiplier\":1,\"depthwise_initializer\":{\"class_name\":\"VarianceScaling\",\"config\":{\"scale\":1,\"mode\":\"fan_avg\",\"distribution\":\"normal\",\"seed\":null}},\"depthwise_regularizer\":null,\"depthwise_constraint\":null},\"inbound_nodes\":[[[\"activation_Activation24\",0,0,{}]]]},{\"name\":\"batch_normalization_BatchNormalization37\",\"class_name\":\"BatchNormalization\",\"config\":{\"axis\":-1,\"momentum\":0.99,\"epsilon\":0.001,\"center\":true,\"scale\":true,\"beta_initializer\":{\"class_name\":\"Zeros\",\"config\":{}},\"gamma_initializer\":{\"class_name\":\"Ones\",\"config\":{}},\"moving_mean_initializer\":{\"class_name\":\"Zeros\",\"config\":{}},\"moving_variance_initializer\":{\"class_name\":\"Ones\",\"config\":{}},\"beta_regularizer\":null,\"gamma_regularizer\":null,\"beta_constraint\":null,\"gamma_constraint\":null,\"name\":\"batch_normalization_BatchNormalization37\",\"trainable\":true},\"inbound_nodes\":[[[\"depthwise_conv2d_DepthwiseConv2D13\",0,0,{}]]]},{\"name\":\"activation_Activation25\",\"class_name\":\"Activation\",\"config\":{\"activation\":\"swish\",\"name\":\"activation_Activation25\",\"trainable\":true},\"inbound_nodes\":[[[\"batch_normalization_BatchNormalization37\",0,0,{}]]]},{\"name\":\"global_average_pooling2d_GlobalAveragePooling2D13\",\"class_name\":\"GlobalAveragePooling2D\",\"config\":{\"data_format\":\"channels_last\",\"name\":\"global_average_pooling2d_GlobalAveragePooling2D13\",\"trainable\":true},\"inbound_nodes\":[[[\"activation_Activation25\",0,0,{}]]]},{\"name\":\"reshape_Reshape13\",\"class_name\":\"Reshape\",\"config\":{\"target_shape\":[1,1,576],\"name\":\"reshape_Reshape13\",\"trainable\":true},\"inbound_nodes\":[[[\"global_average_pooling2d_GlobalAveragePooling2D13\",0,0,{}]]]},{\"name\":\"dense_Dense25\",\"class_name\":\"Dense\",\"config\":{\"units\":24,\"activation\":\"swish\",\"use_bias\":true,\"kernel_initializer\":{\"class_name\":\"VarianceScaling\",\"config\":{\"scale\":2,\"mode\":\"fan_in\",\"distribution\":\"normal\",\"seed\":null}},\"bias_initializer\":{\"class_name\":\"Zeros\",\"config\":{}},\"kernel_regularizer\":null,\"bias_regularizer\":null,\"activity_regularizer\":null,\"kernel_constraint\":null,\"bias_constraint\":null,\"name\":\"dense_Dense25\",\"trainable\":true},\"inbound_nodes\":[[[\"reshape_Reshape13\",0,0,{}]]]},{\"name\":\"dense_Dense26\",\"class_name\":\"Dense\",\"config\":{\"units\":576,\"activation\":\"sigmoid\",\"use_bias\":true,\"kernel_initializer\":{\"class_name\":\"VarianceScaling\",\"config\":{\"scale\":2,\"mode\":\"fan_in\",\"distribution\":\"normal\",\"seed\":null}},\"bias_initializer\":{\"class_name\":\"Zeros\",\"config\":{}},\"kernel_regularizer\":null,\"bias_regularizer\":null,\"activity_regularizer\":null,\"kernel_constraint\":null,\"bias_constraint\":null,\"name\":\"dense_Dense26\",\"trainable\":true},\"inbound_nodes\":[[[\"dense_Dense25\",0,0,{}]]]},{\"name\":\"multiply_Multiply13\",\"class_name\":\"Multiply\",\"config\":{\"name\":\"multiply_Multiply13\",\"trainable\":true},\"inbound_nodes\":[[[\"activation_Activation25\",0,0,{}],[\"dense_Dense26\",0,0,{}]]]},{\"name\":\"conv2d_Conv2D25\",\"class_name\":\"Conv2D\",\"config\":{\"filters\":96,\"kernel_initializer\":{\"class_name\":\"VarianceScaling\",\"config\":{\"scale\":2,\"mode\":\"fan_in\",\"distribution\":\"normal\",\"seed\":null}},\"kernel_regularizer\":null,\"kernel_constraint\":null,\"kernel_size\":[1,1],\"strides\":[1,1],\"padding\":\"same\",\"data_format\":\"channels_last\",\"dilation_rate\":[1,1],\"activation\":\"linear\",\"use_bias\":false,\"bias_initializer\":{\"class_name\":\"Zeros\",\"config\":{}},\"bias_regularizer\":null,\"activity_regularizer\":null,\"bias_constraint\":null,\"name\":\"conv2d_Conv2D25\",\"trainable\":true},\"inbound_nodes\":[[[\"multiply_Multiply13\",0,0,{}]]]},{\"name\":\"batch_normalization_BatchNormalization38\",\"class_name\":\"BatchNormalization\",\"config\":{\"axis\":-1,\"momentum\":0.99,\"epsilon\":0.001,\"center\":true,\"scale\":true,\"beta_initializer\":{\"class_name\":\"Zeros\",\"config\":{}},\"gamma_initializer\":{\"class_name\":\"Ones\",\"config\":{}},\"moving_mean_initializer\":{\"class_name\":\"Zeros\",\"config\":{}},\"moving_variance_initializer\":{\"class_name\":\"Ones\",\"config\":{}},\"beta_regularizer\":null,\"gamma_regularizer\":null,\"beta_constraint\":null,\"gamma_constraint\":null,\"name\":\"batch_normalization_BatchNormalization38\",\"trainable\":true},\"inbound_nodes\":[[[\"conv2d_Conv2D25\",0,0,{}]]]},{\"name\":\"dropout_Dropout9\",\"class_name\":\"Dropout\",\"config\":{\"rate\":0.26,\"noise_shape\":null,\"seed\":null,\"name\":\"dropout_Dropout9\",\"trainable\":true},\"inbound_nodes\":[[[\"batch_normalization_BatchNormalization38\",0,0,{}]]]},{\"name\":\"add_Add9\",\"class_name\":\"Add\",\"config\":{\"name\":\"add_Add9\",\"trainable\":true},\"inbound_nodes\":[[[\"dropout_Dropout9\",0,0,{}],[\"add_Add8\",0,0,{}]]]},{\"name\":\"conv2d_Conv2D26\",\"class_name\":\"Conv2D\",\"config\":{\"filters\":576,\"kernel_initializer\":{\"class_name\":\"VarianceScaling\",\"config\":{\"scale\":2,\"mode\":\"fan_in\",\"distribution\":\"normal\",\"seed\":null}},\"kernel_regularizer\":null,\"kernel_constraint\":null,\"kernel_size\":[1,1],\"strides\":[1,1],\"padding\":\"same\",\"data_format\":\"channels_last\",\"dilation_rate\":[1,1],\"activation\":\"linear\",\"use_bias\":false,\"bias_initializer\":{\"class_name\":\"Zeros\",\"config\":{}},\"bias_regularizer\":null,\"activity_regularizer\":null,\"bias_constraint\":null,\"name\":\"conv2d_Conv2D26\",\"trainable\":true},\"inbound_nodes\":[[[\"add_Add9\",0,0,{}]]]},{\"name\":\"batch_normalization_BatchNormalization39\",\"class_name\":\"BatchNormalization\",\"config\":{\"axis\":-1,\"momentum\":0.99,\"epsilon\":0.001,\"center\":true,\"scale\":true,\"beta_initializer\":{\"class_name\":\"Zeros\",\"config\":{}},\"gamma_initializer\":{\"class_name\":\"Ones\",\"config\":{}},\"moving_mean_initializer\":{\"class_name\":\"Zeros\",\"config\":{}},\"moving_variance_initializer\":{\"class_name\":\"Ones\",\"config\":{}},\"beta_regularizer\":null,\"gamma_regularizer\":null,\"beta_constraint\":null,\"gamma_constraint\":null,\"name\":\"batch_normalization_BatchNormalization39\",\"trainable\":true},\"inbound_nodes\":[[[\"conv2d_Conv2D26\",0,0,{}]]]},{\"name\":\"activation_Activation26\",\"class_name\":\"Activation\",\"config\":{\"activation\":\"swish\",\"name\":\"activation_Activation26\",\"trainable\":true},\"inbound_nodes\":[[[\"batch_normalization_BatchNormalization39\",0,0,{}]]]},{\"name\":\"depthwise_conv2d_DepthwiseConv2D14\",\"class_name\":\"DepthwiseConv2D\",\"config\":{\"kernel_size\":[5,5],\"strides\":[1,1],\"padding\":\"same\",\"data_format\":\"channels_last\",\"dilation_rate\":[1,1],\"activation\":\"linear\",\"use_bias\":false,\"bias_initializer\":{\"class_name\":\"Zeros\",\"config\":{}},\"bias_regularizer\":null,\"activity_regularizer\":null,\"bias_constraint\":null,\"name\":\"depthwise_conv2d_DepthwiseConv2D14\",\"trainable\":true,\"depth_multiplier\":1,\"depthwise_initializer\":{\"class_name\":\"VarianceScaling\",\"config\":{\"scale\":1,\"mode\":\"fan_avg\",\"distribution\":\"normal\",\"seed\":null}},\"depthwise_regularizer\":null,\"depthwise_constraint\":null},\"inbound_nodes\":[[[\"activation_Activation26\",0,0,{}]]]},{\"name\":\"batch_normalization_BatchNormalization40\",\"class_name\":\"BatchNormalization\",\"config\":{\"axis\":-1,\"momentum\":0.99,\"epsilon\":0.001,\"center\":true,\"scale\":true,\"beta_initializer\":{\"class_name\":\"Zeros\",\"config\":{}},\"gamma_initializer\":{\"class_name\":\"Ones\",\"config\":{}},\"moving_mean_initializer\":{\"class_name\":\"Zeros\",\"config\":{}},\"moving_variance_initializer\":{\"class_name\":\"Ones\",\"config\":{}},\"beta_regularizer\":null,\"gamma_regularizer\":null,\"beta_constraint\":null,\"gamma_constraint\":null,\"name\":\"batch_normalization_BatchNormalization40\",\"trainable\":true},\"inbound_nodes\":[[[\"depthwise_conv2d_DepthwiseConv2D14\",0,0,{}]]]},{\"name\":\"activation_Activation27\",\"class_name\":\"Activation\",\"config\":{\"activation\":\"swish\",\"name\":\"activation_Activation27\",\"trainable\":true},\"inbound_nodes\":[[[\"batch_normalization_BatchNormalization40\",0,0,{}]]]},{\"name\":\"global_average_pooling2d_GlobalAveragePooling2D14\",\"class_name\":\"GlobalAveragePooling2D\",\"config\":{\"data_format\":\"channels_last\",\"name\":\"global_average_pooling2d_GlobalAveragePooling2D14\",\"trainable\":true},\"inbound_nodes\":[[[\"activation_Activation27\",0,0,{}]]]},{\"name\":\"reshape_Reshape14\",\"class_name\":\"Reshape\",\"config\":{\"target_shape\":[1,1,576],\"name\":\"reshape_Reshape14\",\"trainable\":true},\"inbound_nodes\":[[[\"global_average_pooling2d_GlobalAveragePooling2D14\",0,0,{}]]]},{\"name\":\"dense_Dense27\",\"class_name\":\"Dense\",\"config\":{\"units\":24,\"activation\":\"swish\",\"use_bias\":true,\"kernel_initializer\":{\"class_name\":\"VarianceScaling\",\"config\":{\"scale\":2,\"mode\":\"fan_in\",\"distribution\":\"normal\",\"seed\":null}},\"bias_initializer\":{\"class_name\":\"Zeros\",\"config\":{}},\"kernel_regularizer\":null,\"bias_regularizer\":null,\"activity_regularizer\":null,\"kernel_constraint\":null,\"bias_constraint\":null,\"name\":\"dense_Dense27\",\"trainable\":true},\"inbound_nodes\":[[[\"reshape_Reshape14\",0,0,{}]]]},{\"name\":\"dense_Dense28\",\"class_name\":\"Dense\",\"config\":{\"units\":576,\"activation\":\"sigmoid\",\"use_bias\":true,\"kernel_initializer\":{\"class_name\":\"VarianceScaling\",\"config\":{\"scale\":2,\"mode\":\"fan_in\",\"distribution\":\"normal\",\"seed\":null}},\"bias_initializer\":{\"class_name\":\"Zeros\",\"config\":{}},\"kernel_regularizer\":null,\"bias_regularizer\":null,\"activity_regularizer\":null,\"kernel_constraint\":null,\"bias_constraint\":null,\"name\":\"dense_Dense28\",\"trainable\":true},\"inbound_nodes\":[[[\"dense_Dense27\",0,0,{}]]]},{\"name\":\"multiply_Multiply14\",\"class_name\":\"Multiply\",\"config\":{\"name\":\"multiply_Multiply14\",\"trainable\":true},\"inbound_nodes\":[[[\"activation_Activation27\",0,0,{}],[\"dense_Dense28\",0,0,{}]]]},{\"name\":\"conv2d_Conv2D27\",\"class_name\":\"Conv2D\",\"config\":{\"filters\":136,\"kernel_initializer\":{\"class_name\":\"VarianceScaling\",\"config\":{\"scale\":2,\"mode\":\"fan_in\",\"distribution\":\"normal\",\"seed\":null}},\"kernel_regularizer\":null,\"kernel_constraint\":null,\"kernel_size\":[1,1],\"strides\":[1,1],\"padding\":\"same\",\"data_format\":\"channels_last\",\"dilation_rate\":[1,1],\"activation\":\"linear\",\"use_bias\":false,\"bias_initializer\":{\"class_name\":\"Zeros\",\"config\":{}},\"bias_regularizer\":null,\"activity_regularizer\":null,\"bias_constraint\":null,\"name\":\"conv2d_Conv2D27\",\"trainable\":true},\"inbound_nodes\":[[[\"multiply_Multiply14\",0,0,{}]]]},{\"name\":\"batch_normalization_BatchNormalization41\",\"class_name\":\"BatchNormalization\",\"config\":{\"axis\":-1,\"momentum\":0.99,\"epsilon\":0.001,\"center\":true,\"scale\":true,\"beta_initializer\":{\"class_name\":\"Zeros\",\"config\":{}},\"gamma_initializer\":{\"class_name\":\"Ones\",\"config\":{}},\"moving_mean_initializer\":{\"class_name\":\"Zeros\",\"config\":{}},\"moving_variance_initializer\":{\"class_name\":\"Ones\",\"config\":{}},\"beta_regularizer\":null,\"gamma_regularizer\":null,\"beta_constraint\":null,\"gamma_constraint\":null,\"name\":\"batch_normalization_BatchNormalization41\",\"trainable\":true},\"inbound_nodes\":[[[\"conv2d_Conv2D27\",0,0,{}]]]},{\"name\":\"conv2d_Conv2D28\",\"class_name\":\"Conv2D\",\"config\":{\"filters\":816,\"kernel_initializer\":{\"class_name\":\"VarianceScaling\",\"config\":{\"scale\":2,\"mode\":\"fan_in\",\"distribution\":\"normal\",\"seed\":null}},\"kernel_regularizer\":null,\"kernel_constraint\":null,\"kernel_size\":[1,1],\"strides\":[1,1],\"padding\":\"same\",\"data_format\":\"channels_last\",\"dilation_rate\":[1,1],\"activation\":\"linear\",\"use_bias\":false,\"bias_initializer\":{\"class_name\":\"Zeros\",\"config\":{}},\"bias_regularizer\":null,\"activity_regularizer\":null,\"bias_constraint\":null,\"name\":\"conv2d_Conv2D28\",\"trainable\":true},\"inbound_nodes\":[[[\"batch_normalization_BatchNormalization41\",0,0,{}]]]},{\"name\":\"batch_normalization_BatchNormalization42\",\"class_name\":\"BatchNormalization\",\"config\":{\"axis\":-1,\"momentum\":0.99,\"epsilon\":0.001,\"center\":true,\"scale\":true,\"beta_initializer\":{\"class_name\":\"Zeros\",\"config\":{}},\"gamma_initializer\":{\"class_name\":\"Ones\",\"config\":{}},\"moving_mean_initializer\":{\"class_name\":\"Zeros\",\"config\":{}},\"moving_variance_initializer\":{\"class_name\":\"Ones\",\"config\":{}},\"beta_regularizer\":null,\"gamma_regularizer\":null,\"beta_constraint\":null,\"gamma_constraint\":null,\"name\":\"batch_normalization_BatchNormalization42\",\"trainable\":true},\"inbound_nodes\":[[[\"conv2d_Conv2D28\",0,0,{}]]]},{\"name\":\"activation_Activation28\",\"class_name\":\"Activation\",\"config\":{\"activation\":\"swish\",\"name\":\"activation_Activation28\",\"trainable\":true},\"inbound_nodes\":[[[\"batch_normalization_BatchNormalization42\",0,0,{}]]]},{\"name\":\"depthwise_conv2d_DepthwiseConv2D15\",\"class_name\":\"DepthwiseConv2D\",\"config\":{\"kernel_size\":[5,5],\"strides\":[1,1],\"padding\":\"same\",\"data_format\":\"channels_last\",\"dilation_rate\":[1,1],\"activation\":\"linear\",\"use_bias\":false,\"bias_initializer\":{\"class_name\":\"Zeros\",\"config\":{}},\"bias_regularizer\":null,\"activity_regularizer\":null,\"bias_constraint\":null,\"name\":\"depthwise_conv2d_DepthwiseConv2D15\",\"trainable\":true,\"depth_multiplier\":1,\"depthwise_initializer\":{\"class_name\":\"VarianceScaling\",\"config\":{\"scale\":1,\"mode\":\"fan_avg\",\"distribution\":\"normal\",\"seed\":null}},\"depthwise_regularizer\":null,\"depthwise_constraint\":null},\"inbound_nodes\":[[[\"activation_Activation28\",0,0,{}]]]},{\"name\":\"batch_normalization_BatchNormalization43\",\"class_name\":\"BatchNormalization\",\"config\":{\"axis\":-1,\"momentum\":0.99,\"epsilon\":0.001,\"center\":true,\"scale\":true,\"beta_initializer\":{\"class_name\":\"Zeros\",\"config\":{}},\"gamma_initializer\":{\"class_name\":\"Ones\",\"config\":{}},\"moving_mean_initializer\":{\"class_name\":\"Zeros\",\"config\":{}},\"moving_variance_initializer\":{\"class_name\":\"Ones\",\"config\":{}},\"beta_regularizer\":null,\"gamma_regularizer\":null,\"beta_constraint\":null,\"gamma_constraint\":null,\"name\":\"batch_normalization_BatchNormalization43\",\"trainable\":true},\"inbound_nodes\":[[[\"depthwise_conv2d_DepthwiseConv2D15\",0,0,{}]]]},{\"name\":\"activation_Activation29\",\"class_name\":\"Activation\",\"config\":{\"activation\":\"swish\",\"name\":\"activation_Activation29\",\"trainable\":true},\"inbound_nodes\":[[[\"batch_normalization_BatchNormalization43\",0,0,{}]]]},{\"name\":\"global_average_pooling2d_GlobalAveragePooling2D15\",\"class_name\":\"GlobalAveragePooling2D\",\"config\":{\"data_format\":\"channels_last\",\"name\":\"global_average_pooling2d_GlobalAveragePooling2D15\",\"trainable\":true},\"inbound_nodes\":[[[\"activation_Activation29\",0,0,{}]]]},{\"name\":\"reshape_Reshape15\",\"class_name\":\"Reshape\",\"config\":{\"target_shape\":[1,1,816],\"name\":\"reshape_Reshape15\",\"trainable\":true},\"inbound_nodes\":[[[\"global_average_pooling2d_GlobalAveragePooling2D15\",0,0,{}]]]},{\"name\":\"dense_Dense29\",\"class_name\":\"Dense\",\"config\":{\"units\":34,\"activation\":\"swish\",\"use_bias\":true,\"kernel_initializer\":{\"class_name\":\"VarianceScaling\",\"config\":{\"scale\":2,\"mode\":\"fan_in\",\"distribution\":\"normal\",\"seed\":null}},\"bias_initializer\":{\"class_name\":\"Zeros\",\"config\":{}},\"kernel_regularizer\":null,\"bias_regularizer\":null,\"activity_regularizer\":null,\"kernel_constraint\":null,\"bias_constraint\":null,\"name\":\"dense_Dense29\",\"trainable\":true},\"inbound_nodes\":[[[\"reshape_Reshape15\",0,0,{}]]]},{\"name\":\"dense_Dense30\",\"class_name\":\"Dense\",\"config\":{\"units\":816,\"activation\":\"sigmoid\",\"use_bias\":true,\"kernel_initializer\":{\"class_name\":\"VarianceScaling\",\"config\":{\"scale\":2,\"mode\":\"fan_in\",\"distribution\":\"normal\",\"seed\":null}},\"bias_initializer\":{\"class_name\":\"Zeros\",\"config\":{}},\"kernel_regularizer\":null,\"bias_regularizer\":null,\"activity_regularizer\":null,\"kernel_constraint\":null,\"bias_constraint\":null,\"name\":\"dense_Dense30\",\"trainable\":true},\"inbound_nodes\":[[[\"dense_Dense29\",0,0,{}]]]},{\"name\":\"multiply_Multiply15\",\"class_name\":\"Multiply\",\"config\":{\"name\":\"multiply_Multiply15\",\"trainable\":true},\"inbound_nodes\":[[[\"activation_Activation29\",0,0,{}],[\"dense_Dense30\",0,0,{}]]]},{\"name\":\"conv2d_Conv2D29\",\"class_name\":\"Conv2D\",\"config\":{\"filters\":136,\"kernel_initializer\":{\"class_name\":\"VarianceScaling\",\"config\":{\"scale\":2,\"mode\":\"fan_in\",\"distribution\":\"normal\",\"seed\":null}},\"kernel_regularizer\":null,\"kernel_constraint\":null,\"kernel_size\":[1,1],\"strides\":[1,1],\"padding\":\"same\",\"data_format\":\"channels_last\",\"dilation_rate\":[1,1],\"activation\":\"linear\",\"use_bias\":false,\"bias_initializer\":{\"class_name\":\"Zeros\",\"config\":{}},\"bias_regularizer\":null,\"activity_regularizer\":null,\"bias_constraint\":null,\"name\":\"conv2d_Conv2D29\",\"trainable\":true},\"inbound_nodes\":[[[\"multiply_Multiply15\",0,0,{}]]]},{\"name\":\"batch_normalization_BatchNormalization44\",\"class_name\":\"BatchNormalization\",\"config\":{\"axis\":-1,\"momentum\":0.99,\"epsilon\":0.001,\"center\":true,\"scale\":true,\"beta_initializer\":{\"class_name\":\"Zeros\",\"config\":{}},\"gamma_initializer\":{\"class_name\":\"Ones\",\"config\":{}},\"moving_mean_initializer\":{\"class_name\":\"Zeros\",\"config\":{}},\"moving_variance_initializer\":{\"class_name\":\"Ones\",\"config\":{}},\"beta_regularizer\":null,\"gamma_regularizer\":null,\"beta_constraint\":null,\"gamma_constraint\":null,\"name\":\"batch_normalization_BatchNormalization44\",\"trainable\":true},\"inbound_nodes\":[[[\"conv2d_Conv2D29\",0,0,{}]]]},{\"name\":\"dropout_Dropout10\",\"class_name\":\"Dropout\",\"config\":{\"rate\":0.14,\"noise_shape\":null,\"seed\":null,\"name\":\"dropout_Dropout10\",\"trainable\":true},\"inbound_nodes\":[[[\"batch_normalization_BatchNormalization44\",0,0,{}]]]},{\"name\":\"add_Add10\",\"class_name\":\"Add\",\"config\":{\"name\":\"add_Add10\",\"trainable\":true},\"inbound_nodes\":[[[\"dropout_Dropout10\",0,0,{}],[\"batch_normalization_BatchNormalization41\",0,0,{}]]]},{\"name\":\"conv2d_Conv2D30\",\"class_name\":\"Conv2D\",\"config\":{\"filters\":816,\"kernel_initializer\":{\"class_name\":\"VarianceScaling\",\"config\":{\"scale\":2,\"mode\":\"fan_in\",\"distribution\":\"normal\",\"seed\":null}},\"kernel_regularizer\":null,\"kernel_constraint\":null,\"kernel_size\":[1,1],\"strides\":[1,1],\"padding\":\"same\",\"data_format\":\"channels_last\",\"dilation_rate\":[1,1],\"activation\":\"linear\",\"use_bias\":false,\"bias_initializer\":{\"class_name\":\"Zeros\",\"config\":{}},\"bias_regularizer\":null,\"activity_regularizer\":null,\"bias_constraint\":null,\"name\":\"conv2d_Conv2D30\",\"trainable\":true},\"inbound_nodes\":[[[\"add_Add10\",0,0,{}]]]},{\"name\":\"batch_normalization_BatchNormalization45\",\"class_name\":\"BatchNormalization\",\"config\":{\"axis\":-1,\"momentum\":0.99,\"epsilon\":0.001,\"center\":true,\"scale\":true,\"beta_initializer\":{\"class_name\":\"Zeros\",\"config\":{}},\"gamma_initializer\":{\"class_name\":\"Ones\",\"config\":{}},\"moving_mean_initializer\":{\"class_name\":\"Zeros\",\"config\":{}},\"moving_variance_initializer\":{\"class_name\":\"Ones\",\"config\":{}},\"beta_regularizer\":null,\"gamma_regularizer\":null,\"beta_constraint\":null,\"gamma_constraint\":null,\"name\":\"batch_normalization_BatchNormalization45\",\"trainable\":true},\"inbound_nodes\":[[[\"conv2d_Conv2D30\",0,0,{}]]]},{\"name\":\"activation_Activation30\",\"class_name\":\"Activation\",\"config\":{\"activation\":\"swish\",\"name\":\"activation_Activation30\",\"trainable\":true},\"inbound_nodes\":[[[\"batch_normalization_BatchNormalization45\",0,0,{}]]]},{\"name\":\"depthwise_conv2d_DepthwiseConv2D16\",\"class_name\":\"DepthwiseConv2D\",\"config\":{\"kernel_size\":[5,5],\"strides\":[1,1],\"padding\":\"same\",\"data_format\":\"channels_last\",\"dilation_rate\":[1,1],\"activation\":\"linear\",\"use_bias\":false,\"bias_initializer\":{\"class_name\":\"Zeros\",\"config\":{}},\"bias_regularizer\":null,\"activity_regularizer\":null,\"bias_constraint\":null,\"name\":\"depthwise_conv2d_DepthwiseConv2D16\",\"trainable\":true,\"depth_multiplier\":1,\"depthwise_initializer\":{\"class_name\":\"VarianceScaling\",\"config\":{\"scale\":1,\"mode\":\"fan_avg\",\"distribution\":\"normal\",\"seed\":null}},\"depthwise_regularizer\":null,\"depthwise_constraint\":null},\"inbound_nodes\":[[[\"activation_Activation30\",0,0,{}]]]},{\"name\":\"batch_normalization_BatchNormalization46\",\"class_name\":\"BatchNormalization\",\"config\":{\"axis\":-1,\"momentum\":0.99,\"epsilon\":0.001,\"center\":true,\"scale\":true,\"beta_initializer\":{\"class_name\":\"Zeros\",\"config\":{}},\"gamma_initializer\":{\"class_name\":\"Ones\",\"config\":{}},\"moving_mean_initializer\":{\"class_name\":\"Zeros\",\"config\":{}},\"moving_variance_initializer\":{\"class_name\":\"Ones\",\"config\":{}},\"beta_regularizer\":null,\"gamma_regularizer\":null,\"beta_constraint\":null,\"gamma_constraint\":null,\"name\":\"batch_normalization_BatchNormalization46\",\"trainable\":true},\"inbound_nodes\":[[[\"depthwise_conv2d_DepthwiseConv2D16\",0,0,{}]]]},{\"name\":\"activation_Activation31\",\"class_name\":\"Activation\",\"config\":{\"activation\":\"swish\",\"name\":\"activation_Activation31\",\"trainable\":true},\"inbound_nodes\":[[[\"batch_normalization_BatchNormalization46\",0,0,{}]]]},{\"name\":\"global_average_pooling2d_GlobalAveragePooling2D16\",\"class_name\":\"GlobalAveragePooling2D\",\"config\":{\"data_format\":\"channels_last\",\"name\":\"global_average_pooling2d_GlobalAveragePooling2D16\",\"trainable\":true},\"inbound_nodes\":[[[\"activation_Activation31\",0,0,{}]]]},{\"name\":\"reshape_Reshape16\",\"class_name\":\"Reshape\",\"config\":{\"target_shape\":[1,1,816],\"name\":\"reshape_Reshape16\",\"trainable\":true},\"inbound_nodes\":[[[\"global_average_pooling2d_GlobalAveragePooling2D16\",0,0,{}]]]},{\"name\":\"dense_Dense31\",\"class_name\":\"Dense\",\"config\":{\"units\":34,\"activation\":\"swish\",\"use_bias\":true,\"kernel_initializer\":{\"class_name\":\"VarianceScaling\",\"config\":{\"scale\":2,\"mode\":\"fan_in\",\"distribution\":\"normal\",\"seed\":null}},\"bias_initializer\":{\"class_name\":\"Zeros\",\"config\":{}},\"kernel_regularizer\":null,\"bias_regularizer\":null,\"activity_regularizer\":null,\"kernel_constraint\":null,\"bias_constraint\":null,\"name\":\"dense_Dense31\",\"trainable\":true},\"inbound_nodes\":[[[\"reshape_Reshape16\",0,0,{}]]]},{\"name\":\"dense_Dense32\",\"class_name\":\"Dense\",\"config\":{\"units\":816,\"activation\":\"sigmoid\",\"use_bias\":true,\"kernel_initializer\":{\"class_name\":\"VarianceScaling\",\"config\":{\"scale\":2,\"mode\":\"fan_in\",\"distribution\":\"normal\",\"seed\":null}},\"bias_initializer\":{\"class_name\":\"Zeros\",\"config\":{}},\"kernel_regularizer\":null,\"bias_regularizer\":null,\"activity_regularizer\":null,\"kernel_constraint\":null,\"bias_constraint\":null,\"name\":\"dense_Dense32\",\"trainable\":true},\"inbound_nodes\":[[[\"dense_Dense31\",0,0,{}]]]},{\"name\":\"multiply_Multiply16\",\"class_name\":\"Multiply\",\"config\":{\"name\":\"multiply_Multiply16\",\"trainable\":true},\"inbound_nodes\":[[[\"activation_Activation31\",0,0,{}],[\"dense_Dense32\",0,0,{}]]]},{\"name\":\"conv2d_Conv2D31\",\"class_name\":\"Conv2D\",\"config\":{\"filters\":136,\"kernel_initializer\":{\"class_name\":\"VarianceScaling\",\"config\":{\"scale\":2,\"mode\":\"fan_in\",\"distribution\":\"normal\",\"seed\":null}},\"kernel_regularizer\":null,\"kernel_constraint\":null,\"kernel_size\":[1,1],\"strides\":[1,1],\"padding\":\"same\",\"data_format\":\"channels_last\",\"dilation_rate\":[1,1],\"activation\":\"linear\",\"use_bias\":false,\"bias_initializer\":{\"class_name\":\"Zeros\",\"config\":{}},\"bias_regularizer\":null,\"activity_regularizer\":null,\"bias_constraint\":null,\"name\":\"conv2d_Conv2D31\",\"trainable\":true},\"inbound_nodes\":[[[\"multiply_Multiply16\",0,0,{}]]]},{\"name\":\"batch_normalization_BatchNormalization47\",\"class_name\":\"BatchNormalization\",\"config\":{\"axis\":-1,\"momentum\":0.99,\"epsilon\":0.001,\"center\":true,\"scale\":true,\"beta_initializer\":{\"class_name\":\"Zeros\",\"config\":{}},\"gamma_initializer\":{\"class_name\":\"Ones\",\"config\":{}},\"moving_mean_initializer\":{\"class_name\":\"Zeros\",\"config\":{}},\"moving_variance_initializer\":{\"class_name\":\"Ones\",\"config\":{}},\"beta_regularizer\":null,\"gamma_regularizer\":null,\"beta_constraint\":null,\"gamma_constraint\":null,\"name\":\"batch_normalization_BatchNormalization47\",\"trainable\":true},\"inbound_nodes\":[[[\"conv2d_Conv2D31\",0,0,{}]]]},{\"name\":\"dropout_Dropout11\",\"class_name\":\"Dropout\",\"config\":{\"rate\":0.18000000000000002,\"noise_shape\":null,\"seed\":null,\"name\":\"dropout_Dropout11\",\"trainable\":true},\"inbound_nodes\":[[[\"batch_normalization_BatchNormalization47\",0,0,{}]]]},{\"name\":\"add_Add11\",\"class_name\":\"Add\",\"config\":{\"name\":\"add_Add11\",\"trainable\":true},\"inbound_nodes\":[[[\"dropout_Dropout11\",0,0,{}],[\"add_Add10\",0,0,{}]]]},{\"name\":\"conv2d_Conv2D32\",\"class_name\":\"Conv2D\",\"config\":{\"filters\":816,\"kernel_initializer\":{\"class_name\":\"VarianceScaling\",\"config\":{\"scale\":2,\"mode\":\"fan_in\",\"distribution\":\"normal\",\"seed\":null}},\"kernel_regularizer\":null,\"kernel_constraint\":null,\"kernel_size\":[1,1],\"strides\":[1,1],\"padding\":\"same\",\"data_format\":\"channels_last\",\"dilation_rate\":[1,1],\"activation\":\"linear\",\"use_bias\":false,\"bias_initializer\":{\"class_name\":\"Zeros\",\"config\":{}},\"bias_regularizer\":null,\"activity_regularizer\":null,\"bias_constraint\":null,\"name\":\"conv2d_Conv2D32\",\"trainable\":true},\"inbound_nodes\":[[[\"add_Add11\",0,0,{}]]]},{\"name\":\"batch_normalization_BatchNormalization48\",\"class_name\":\"BatchNormalization\",\"config\":{\"axis\":-1,\"momentum\":0.99,\"epsilon\":0.001,\"center\":true,\"scale\":true,\"beta_initializer\":{\"class_name\":\"Zeros\",\"config\":{}},\"gamma_initializer\":{\"class_name\":\"Ones\",\"config\":{}},\"moving_mean_initializer\":{\"class_name\":\"Zeros\",\"config\":{}},\"moving_variance_initializer\":{\"class_name\":\"Ones\",\"config\":{}},\"beta_regularizer\":null,\"gamma_regularizer\":null,\"beta_constraint\":null,\"gamma_constraint\":null,\"name\":\"batch_normalization_BatchNormalization48\",\"trainable\":true},\"inbound_nodes\":[[[\"conv2d_Conv2D32\",0,0,{}]]]},{\"name\":\"activation_Activation32\",\"class_name\":\"Activation\",\"config\":{\"activation\":\"swish\",\"name\":\"activation_Activation32\",\"trainable\":true},\"inbound_nodes\":[[[\"batch_normalization_BatchNormalization48\",0,0,{}]]]},{\"name\":\"depthwise_conv2d_DepthwiseConv2D17\",\"class_name\":\"DepthwiseConv2D\",\"config\":{\"kernel_size\":[5,5],\"strides\":[1,1],\"padding\":\"same\",\"data_format\":\"channels_last\",\"dilation_rate\":[1,1],\"activation\":\"linear\",\"use_bias\":false,\"bias_initializer\":{\"class_name\":\"Zeros\",\"config\":{}},\"bias_regularizer\":null,\"activity_regularizer\":null,\"bias_constraint\":null,\"name\":\"depthwise_conv2d_DepthwiseConv2D17\",\"trainable\":true,\"depth_multiplier\":1,\"depthwise_initializer\":{\"class_name\":\"VarianceScaling\",\"config\":{\"scale\":1,\"mode\":\"fan_avg\",\"distribution\":\"normal\",\"seed\":null}},\"depthwise_regularizer\":null,\"depthwise_constraint\":null},\"inbound_nodes\":[[[\"activation_Activation32\",0,0,{}]]]},{\"name\":\"batch_normalization_BatchNormalization49\",\"class_name\":\"BatchNormalization\",\"config\":{\"axis\":-1,\"momentum\":0.99,\"epsilon\":0.001,\"center\":true,\"scale\":true,\"beta_initializer\":{\"class_name\":\"Zeros\",\"config\":{}},\"gamma_initializer\":{\"class_name\":\"Ones\",\"config\":{}},\"moving_mean_initializer\":{\"class_name\":\"Zeros\",\"config\":{}},\"moving_variance_initializer\":{\"class_name\":\"Ones\",\"config\":{}},\"beta_regularizer\":null,\"gamma_regularizer\":null,\"beta_constraint\":null,\"gamma_constraint\":null,\"name\":\"batch_normalization_BatchNormalization49\",\"trainable\":true},\"inbound_nodes\":[[[\"depthwise_conv2d_DepthwiseConv2D17\",0,0,{}]]]},{\"name\":\"activation_Activation33\",\"class_name\":\"Activation\",\"config\":{\"activation\":\"swish\",\"name\":\"activation_Activation33\",\"trainable\":true},\"inbound_nodes\":[[[\"batch_normalization_BatchNormalization49\",0,0,{}]]]},{\"name\":\"global_average_pooling2d_GlobalAveragePooling2D17\",\"class_name\":\"GlobalAveragePooling2D\",\"config\":{\"data_format\":\"channels_last\",\"name\":\"global_average_pooling2d_GlobalAveragePooling2D17\",\"trainable\":true},\"inbound_nodes\":[[[\"activation_Activation33\",0,0,{}]]]},{\"name\":\"reshape_Reshape17\",\"class_name\":\"Reshape\",\"config\":{\"target_shape\":[1,1,816],\"name\":\"reshape_Reshape17\",\"trainable\":true},\"inbound_nodes\":[[[\"global_average_pooling2d_GlobalAveragePooling2D17\",0,0,{}]]]},{\"name\":\"dense_Dense33\",\"class_name\":\"Dense\",\"config\":{\"units\":34,\"activation\":\"swish\",\"use_bias\":true,\"kernel_initializer\":{\"class_name\":\"VarianceScaling\",\"config\":{\"scale\":2,\"mode\":\"fan_in\",\"distribution\":\"normal\",\"seed\":null}},\"bias_initializer\":{\"class_name\":\"Zeros\",\"config\":{}},\"kernel_regularizer\":null,\"bias_regularizer\":null,\"activity_regularizer\":null,\"kernel_constraint\":null,\"bias_constraint\":null,\"name\":\"dense_Dense33\",\"trainable\":true},\"inbound_nodes\":[[[\"reshape_Reshape17\",0,0,{}]]]},{\"name\":\"dense_Dense34\",\"class_name\":\"Dense\",\"config\":{\"units\":816,\"activation\":\"sigmoid\",\"use_bias\":true,\"kernel_initializer\":{\"class_name\":\"VarianceScaling\",\"config\":{\"scale\":2,\"mode\":\"fan_in\",\"distribution\":\"normal\",\"seed\":null}},\"bias_initializer\":{\"class_name\":\"Zeros\",\"config\":{}},\"kernel_regularizer\":null,\"bias_regularizer\":null,\"activity_regularizer\":null,\"kernel_constraint\":null,\"bias_constraint\":null,\"name\":\"dense_Dense34\",\"trainable\":true},\"inbound_nodes\":[[[\"dense_Dense33\",0,0,{}]]]},{\"name\":\"multiply_Multiply17\",\"class_name\":\"Multiply\",\"config\":{\"name\":\"multiply_Multiply17\",\"trainable\":true},\"inbound_nodes\":[[[\"activation_Activation33\",0,0,{}],[\"dense_Dense34\",0,0,{}]]]},{\"name\":\"conv2d_Conv2D33\",\"class_name\":\"Conv2D\",\"config\":{\"filters\":136,\"kernel_initializer\":{\"class_name\":\"VarianceScaling\",\"config\":{\"scale\":2,\"mode\":\"fan_in\",\"distribution\":\"normal\",\"seed\":null}},\"kernel_regularizer\":null,\"kernel_constraint\":null,\"kernel_size\":[1,1],\"strides\":[1,1],\"padding\":\"same\",\"data_format\":\"channels_last\",\"dilation_rate\":[1,1],\"activation\":\"linear\",\"use_bias\":false,\"bias_initializer\":{\"class_name\":\"Zeros\",\"config\":{}},\"bias_regularizer\":null,\"activity_regularizer\":null,\"bias_constraint\":null,\"name\":\"conv2d_Conv2D33\",\"trainable\":true},\"inbound_nodes\":[[[\"multiply_Multiply17\",0,0,{}]]]},{\"name\":\"batch_normalization_BatchNormalization50\",\"class_name\":\"BatchNormalization\",\"config\":{\"axis\":-1,\"momentum\":0.99,\"epsilon\":0.001,\"center\":true,\"scale\":true,\"beta_initializer\":{\"class_name\":\"Zeros\",\"config\":{}},\"gamma_initializer\":{\"class_name\":\"Ones\",\"config\":{}},\"moving_mean_initializer\":{\"class_name\":\"Zeros\",\"config\":{}},\"moving_variance_initializer\":{\"class_name\":\"Ones\",\"config\":{}},\"beta_regularizer\":null,\"gamma_regularizer\":null,\"beta_constraint\":null,\"gamma_constraint\":null,\"name\":\"batch_normalization_BatchNormalization50\",\"trainable\":true},\"inbound_nodes\":[[[\"conv2d_Conv2D33\",0,0,{}]]]},{\"name\":\"dropout_Dropout12\",\"class_name\":\"Dropout\",\"config\":{\"rate\":0.22,\"noise_shape\":null,\"seed\":null,\"name\":\"dropout_Dropout12\",\"trainable\":true},\"inbound_nodes\":[[[\"batch_normalization_BatchNormalization50\",0,0,{}]]]},{\"name\":\"add_Add12\",\"class_name\":\"Add\",\"config\":{\"name\":\"add_Add12\",\"trainable\":true},\"inbound_nodes\":[[[\"dropout_Dropout12\",0,0,{}],[\"add_Add11\",0,0,{}]]]},{\"name\":\"conv2d_Conv2D34\",\"class_name\":\"Conv2D\",\"config\":{\"filters\":816,\"kernel_initializer\":{\"class_name\":\"VarianceScaling\",\"config\":{\"scale\":2,\"mode\":\"fan_in\",\"distribution\":\"normal\",\"seed\":null}},\"kernel_regularizer\":null,\"kernel_constraint\":null,\"kernel_size\":[1,1],\"strides\":[1,1],\"padding\":\"same\",\"data_format\":\"channels_last\",\"dilation_rate\":[1,1],\"activation\":\"linear\",\"use_bias\":false,\"bias_initializer\":{\"class_name\":\"Zeros\",\"config\":{}},\"bias_regularizer\":null,\"activity_regularizer\":null,\"bias_constraint\":null,\"name\":\"conv2d_Conv2D34\",\"trainable\":true},\"inbound_nodes\":[[[\"add_Add12\",0,0,{}]]]},{\"name\":\"batch_normalization_BatchNormalization51\",\"class_name\":\"BatchNormalization\",\"config\":{\"axis\":-1,\"momentum\":0.99,\"epsilon\":0.001,\"center\":true,\"scale\":true,\"beta_initializer\":{\"class_name\":\"Zeros\",\"config\":{}},\"gamma_initializer\":{\"class_name\":\"Ones\",\"config\":{}},\"moving_mean_initializer\":{\"class_name\":\"Zeros\",\"config\":{}},\"moving_variance_initializer\":{\"class_name\":\"Ones\",\"config\":{}},\"beta_regularizer\":null,\"gamma_regularizer\":null,\"beta_constraint\":null,\"gamma_constraint\":null,\"name\":\"batch_normalization_BatchNormalization51\",\"trainable\":true},\"inbound_nodes\":[[[\"conv2d_Conv2D34\",0,0,{}]]]},{\"name\":\"activation_Activation34\",\"class_name\":\"Activation\",\"config\":{\"activation\":\"swish\",\"name\":\"activation_Activation34\",\"trainable\":true},\"inbound_nodes\":[[[\"batch_normalization_BatchNormalization51\",0,0,{}]]]},{\"name\":\"depthwise_conv2d_DepthwiseConv2D18\",\"class_name\":\"DepthwiseConv2D\",\"config\":{\"kernel_size\":[5,5],\"strides\":[1,1],\"padding\":\"same\",\"data_format\":\"channels_last\",\"dilation_rate\":[1,1],\"activation\":\"linear\",\"use_bias\":false,\"bias_initializer\":{\"class_name\":\"Zeros\",\"config\":{}},\"bias_regularizer\":null,\"activity_regularizer\":null,\"bias_constraint\":null,\"name\":\"depthwise_conv2d_DepthwiseConv2D18\",\"trainable\":true,\"depth_multiplier\":1,\"depthwise_initializer\":{\"class_name\":\"VarianceScaling\",\"config\":{\"scale\":1,\"mode\":\"fan_avg\",\"distribution\":\"normal\",\"seed\":null}},\"depthwise_regularizer\":null,\"depthwise_constraint\":null},\"inbound_nodes\":[[[\"activation_Activation34\",0,0,{}]]]},{\"name\":\"batch_normalization_BatchNormalization52\",\"class_name\":\"BatchNormalization\",\"config\":{\"axis\":-1,\"momentum\":0.99,\"epsilon\":0.001,\"center\":true,\"scale\":true,\"beta_initializer\":{\"class_name\":\"Zeros\",\"config\":{}},\"gamma_initializer\":{\"class_name\":\"Ones\",\"config\":{}},\"moving_mean_initializer\":{\"class_name\":\"Zeros\",\"config\":{}},\"moving_variance_initializer\":{\"class_name\":\"Ones\",\"config\":{}},\"beta_regularizer\":null,\"gamma_regularizer\":null,\"beta_constraint\":null,\"gamma_constraint\":null,\"name\":\"batch_normalization_BatchNormalization52\",\"trainable\":true},\"inbound_nodes\":[[[\"depthwise_conv2d_DepthwiseConv2D18\",0,0,{}]]]},{\"name\":\"activation_Activation35\",\"class_name\":\"Activation\",\"config\":{\"activation\":\"swish\",\"name\":\"activation_Activation35\",\"trainable\":true},\"inbound_nodes\":[[[\"batch_normalization_BatchNormalization52\",0,0,{}]]]},{\"name\":\"global_average_pooling2d_GlobalAveragePooling2D18\",\"class_name\":\"GlobalAveragePooling2D\",\"config\":{\"data_format\":\"channels_last\",\"name\":\"global_average_pooling2d_GlobalAveragePooling2D18\",\"trainable\":true},\"inbound_nodes\":[[[\"activation_Activation35\",0,0,{}]]]},{\"name\":\"reshape_Reshape18\",\"class_name\":\"Reshape\",\"config\":{\"target_shape\":[1,1,816],\"name\":\"reshape_Reshape18\",\"trainable\":true},\"inbound_nodes\":[[[\"global_average_pooling2d_GlobalAveragePooling2D18\",0,0,{}]]]},{\"name\":\"dense_Dense35\",\"class_name\":\"Dense\",\"config\":{\"units\":34,\"activation\":\"swish\",\"use_bias\":true,\"kernel_initializer\":{\"class_name\":\"VarianceScaling\",\"config\":{\"scale\":2,\"mode\":\"fan_in\",\"distribution\":\"normal\",\"seed\":null}},\"bias_initializer\":{\"class_name\":\"Zeros\",\"config\":{}},\"kernel_regularizer\":null,\"bias_regularizer\":null,\"activity_regularizer\":null,\"kernel_constraint\":null,\"bias_constraint\":null,\"name\":\"dense_Dense35\",\"trainable\":true},\"inbound_nodes\":[[[\"reshape_Reshape18\",0,0,{}]]]},{\"name\":\"dense_Dense36\",\"class_name\":\"Dense\",\"config\":{\"units\":816,\"activation\":\"sigmoid\",\"use_bias\":true,\"kernel_initializer\":{\"class_name\":\"VarianceScaling\",\"config\":{\"scale\":2,\"mode\":\"fan_in\",\"distribution\":\"normal\",\"seed\":null}},\"bias_initializer\":{\"class_name\":\"Zeros\",\"config\":{}},\"kernel_regularizer\":null,\"bias_regularizer\":null,\"activity_regularizer\":null,\"kernel_constraint\":null,\"bias_constraint\":null,\"name\":\"dense_Dense36\",\"trainable\":true},\"inbound_nodes\":[[[\"dense_Dense35\",0,0,{}]]]},{\"name\":\"multiply_Multiply18\",\"class_name\":\"Multiply\",\"config\":{\"name\":\"multiply_Multiply18\",\"trainable\":true},\"inbound_nodes\":[[[\"activation_Activation35\",0,0,{}],[\"dense_Dense36\",0,0,{}]]]},{\"name\":\"conv2d_Conv2D35\",\"class_name\":\"Conv2D\",\"config\":{\"filters\":136,\"kernel_initializer\":{\"class_name\":\"VarianceScaling\",\"config\":{\"scale\":2,\"mode\":\"fan_in\",\"distribution\":\"normal\",\"seed\":null}},\"kernel_regularizer\":null,\"kernel_constraint\":null,\"kernel_size\":[1,1],\"strides\":[1,1],\"padding\":\"same\",\"data_format\":\"channels_last\",\"dilation_rate\":[1,1],\"activation\":\"linear\",\"use_bias\":false,\"bias_initializer\":{\"class_name\":\"Zeros\",\"config\":{}},\"bias_regularizer\":null,\"activity_regularizer\":null,\"bias_constraint\":null,\"name\":\"conv2d_Conv2D35\",\"trainable\":true},\"inbound_nodes\":[[[\"multiply_Multiply18\",0,0,{}]]]},{\"name\":\"batch_normalization_BatchNormalization53\",\"class_name\":\"BatchNormalization\",\"config\":{\"axis\":-1,\"momentum\":0.99,\"epsilon\":0.001,\"center\":true,\"scale\":true,\"beta_initializer\":{\"class_name\":\"Zeros\",\"config\":{}},\"gamma_initializer\":{\"class_name\":\"Ones\",\"config\":{}},\"moving_mean_initializer\":{\"class_name\":\"Zeros\",\"config\":{}},\"moving_variance_initializer\":{\"class_name\":\"Ones\",\"config\":{}},\"beta_regularizer\":null,\"gamma_regularizer\":null,\"beta_constraint\":null,\"gamma_constraint\":null,\"name\":\"batch_normalization_BatchNormalization53\",\"trainable\":true},\"inbound_nodes\":[[[\"conv2d_Conv2D35\",0,0,{}]]]},{\"name\":\"dropout_Dropout13\",\"class_name\":\"Dropout\",\"config\":{\"rate\":0.26,\"noise_shape\":null,\"seed\":null,\"name\":\"dropout_Dropout13\",\"trainable\":true},\"inbound_nodes\":[[[\"batch_normalization_BatchNormalization53\",0,0,{}]]]},{\"name\":\"add_Add13\",\"class_name\":\"Add\",\"config\":{\"name\":\"add_Add13\",\"trainable\":true},\"inbound_nodes\":[[[\"dropout_Dropout13\",0,0,{}],[\"add_Add12\",0,0,{}]]]},{\"name\":\"conv2d_Conv2D36\",\"class_name\":\"Conv2D\",\"config\":{\"filters\":816,\"kernel_initializer\":{\"class_name\":\"VarianceScaling\",\"config\":{\"scale\":2,\"mode\":\"fan_in\",\"distribution\":\"normal\",\"seed\":null}},\"kernel_regularizer\":null,\"kernel_constraint\":null,\"kernel_size\":[1,1],\"strides\":[1,1],\"padding\":\"same\",\"data_format\":\"channels_last\",\"dilation_rate\":[1,1],\"activation\":\"linear\",\"use_bias\":false,\"bias_initializer\":{\"class_name\":\"Zeros\",\"config\":{}},\"bias_regularizer\":null,\"activity_regularizer\":null,\"bias_constraint\":null,\"name\":\"conv2d_Conv2D36\",\"trainable\":true},\"inbound_nodes\":[[[\"add_Add13\",0,0,{}]]]},{\"name\":\"batch_normalization_BatchNormalization54\",\"class_name\":\"BatchNormalization\",\"config\":{\"axis\":-1,\"momentum\":0.99,\"epsilon\":0.001,\"center\":true,\"scale\":true,\"beta_initializer\":{\"class_name\":\"Zeros\",\"config\":{}},\"gamma_initializer\":{\"class_name\":\"Ones\",\"config\":{}},\"moving_mean_initializer\":{\"class_name\":\"Zeros\",\"config\":{}},\"moving_variance_initializer\":{\"class_name\":\"Ones\",\"config\":{}},\"beta_regularizer\":null,\"gamma_regularizer\":null,\"beta_constraint\":null,\"gamma_constraint\":null,\"name\":\"batch_normalization_BatchNormalization54\",\"trainable\":true},\"inbound_nodes\":[[[\"conv2d_Conv2D36\",0,0,{}]]]},{\"name\":\"activation_Activation36\",\"class_name\":\"Activation\",\"config\":{\"activation\":\"swish\",\"name\":\"activation_Activation36\",\"trainable\":true},\"inbound_nodes\":[[[\"batch_normalization_BatchNormalization54\",0,0,{}]]]},{\"name\":\"depthwise_conv2d_DepthwiseConv2D19\",\"class_name\":\"DepthwiseConv2D\",\"config\":{\"kernel_size\":[5,5],\"strides\":[2,2],\"padding\":\"same\",\"data_format\":\"channels_last\",\"dilation_rate\":[1,1],\"activation\":\"linear\",\"use_bias\":false,\"bias_initializer\":{\"class_name\":\"Zeros\",\"config\":{}},\"bias_regularizer\":null,\"activity_regularizer\":null,\"bias_constraint\":null,\"name\":\"depthwise_conv2d_DepthwiseConv2D19\",\"trainable\":true,\"depth_multiplier\":1,\"depthwise_initializer\":{\"class_name\":\"VarianceScaling\",\"config\":{\"scale\":1,\"mode\":\"fan_avg\",\"distribution\":\"normal\",\"seed\":null}},\"depthwise_regularizer\":null,\"depthwise_constraint\":null},\"inbound_nodes\":[[[\"activation_Activation36\",0,0,{}]]]},{\"name\":\"batch_normalization_BatchNormalization55\",\"class_name\":\"BatchNormalization\",\"config\":{\"axis\":-1,\"momentum\":0.99,\"epsilon\":0.001,\"center\":true,\"scale\":true,\"beta_initializer\":{\"class_name\":\"Zeros\",\"config\":{}},\"gamma_initializer\":{\"class_name\":\"Ones\",\"config\":{}},\"moving_mean_initializer\":{\"class_name\":\"Zeros\",\"config\":{}},\"moving_variance_initializer\":{\"class_name\":\"Ones\",\"config\":{}},\"beta_regularizer\":null,\"gamma_regularizer\":null,\"beta_constraint\":null,\"gamma_constraint\":null,\"name\":\"batch_normalization_BatchNormalization55\",\"trainable\":true},\"inbound_nodes\":[[[\"depthwise_conv2d_DepthwiseConv2D19\",0,0,{}]]]},{\"name\":\"activation_Activation37\",\"class_name\":\"Activation\",\"config\":{\"activation\":\"swish\",\"name\":\"activation_Activation37\",\"trainable\":true},\"inbound_nodes\":[[[\"batch_normalization_BatchNormalization55\",0,0,{}]]]},{\"name\":\"global_average_pooling2d_GlobalAveragePooling2D19\",\"class_name\":\"GlobalAveragePooling2D\",\"config\":{\"data_format\":\"channels_last\",\"name\":\"global_average_pooling2d_GlobalAveragePooling2D19\",\"trainable\":true},\"inbound_nodes\":[[[\"activation_Activation37\",0,0,{}]]]},{\"name\":\"reshape_Reshape19\",\"class_name\":\"Reshape\",\"config\":{\"target_shape\":[1,1,816],\"name\":\"reshape_Reshape19\",\"trainable\":true},\"inbound_nodes\":[[[\"global_average_pooling2d_GlobalAveragePooling2D19\",0,0,{}]]]},{\"name\":\"dense_Dense37\",\"class_name\":\"Dense\",\"config\":{\"units\":34,\"activation\":\"swish\",\"use_bias\":true,\"kernel_initializer\":{\"class_name\":\"VarianceScaling\",\"config\":{\"scale\":2,\"mode\":\"fan_in\",\"distribution\":\"normal\",\"seed\":null}},\"bias_initializer\":{\"class_name\":\"Zeros\",\"config\":{}},\"kernel_regularizer\":null,\"bias_regularizer\":null,\"activity_regularizer\":null,\"kernel_constraint\":null,\"bias_constraint\":null,\"name\":\"dense_Dense37\",\"trainable\":true},\"inbound_nodes\":[[[\"reshape_Reshape19\",0,0,{}]]]},{\"name\":\"dense_Dense38\",\"class_name\":\"Dense\",\"config\":{\"units\":816,\"activation\":\"sigmoid\",\"use_bias\":true,\"kernel_initializer\":{\"class_name\":\"VarianceScaling\",\"config\":{\"scale\":2,\"mode\":\"fan_in\",\"distribution\":\"normal\",\"seed\":null}},\"bias_initializer\":{\"class_name\":\"Zeros\",\"config\":{}},\"kernel_regularizer\":null,\"bias_regularizer\":null,\"activity_regularizer\":null,\"kernel_constraint\":null,\"bias_constraint\":null,\"name\":\"dense_Dense38\",\"trainable\":true},\"inbound_nodes\":[[[\"dense_Dense37\",0,0,{}]]]},{\"name\":\"multiply_Multiply19\",\"class_name\":\"Multiply\",\"config\":{\"name\":\"multiply_Multiply19\",\"trainable\":true},\"inbound_nodes\":[[[\"activation_Activation37\",0,0,{}],[\"dense_Dense38\",0,0,{}]]]},{\"name\":\"conv2d_Conv2D37\",\"class_name\":\"Conv2D\",\"config\":{\"filters\":232,\"kernel_initializer\":{\"class_name\":\"VarianceScaling\",\"config\":{\"scale\":2,\"mode\":\"fan_in\",\"distribution\":\"normal\",\"seed\":null}},\"kernel_regularizer\":null,\"kernel_constraint\":null,\"kernel_size\":[1,1],\"strides\":[1,1],\"padding\":\"same\",\"data_format\":\"channels_last\",\"dilation_rate\":[1,1],\"activation\":\"linear\",\"use_bias\":false,\"bias_initializer\":{\"class_name\":\"Zeros\",\"config\":{}},\"bias_regularizer\":null,\"activity_regularizer\":null,\"bias_constraint\":null,\"name\":\"conv2d_Conv2D37\",\"trainable\":true},\"inbound_nodes\":[[[\"multiply_Multiply19\",0,0,{}]]]},{\"name\":\"batch_normalization_BatchNormalization56\",\"class_name\":\"BatchNormalization\",\"config\":{\"axis\":-1,\"momentum\":0.99,\"epsilon\":0.001,\"center\":true,\"scale\":true,\"beta_initializer\":{\"class_name\":\"Zeros\",\"config\":{}},\"gamma_initializer\":{\"class_name\":\"Ones\",\"config\":{}},\"moving_mean_initializer\":{\"class_name\":\"Zeros\",\"config\":{}},\"moving_variance_initializer\":{\"class_name\":\"Ones\",\"config\":{}},\"beta_regularizer\":null,\"gamma_regularizer\":null,\"beta_constraint\":null,\"gamma_constraint\":null,\"name\":\"batch_normalization_BatchNormalization56\",\"trainable\":true},\"inbound_nodes\":[[[\"conv2d_Conv2D37\",0,0,{}]]]},{\"name\":\"conv2d_Conv2D38\",\"class_name\":\"Conv2D\",\"config\":{\"filters\":1392,\"kernel_initializer\":{\"class_name\":\"VarianceScaling\",\"config\":{\"scale\":2,\"mode\":\"fan_in\",\"distribution\":\"normal\",\"seed\":null}},\"kernel_regularizer\":null,\"kernel_constraint\":null,\"kernel_size\":[1,1],\"strides\":[1,1],\"padding\":\"same\",\"data_format\":\"channels_last\",\"dilation_rate\":[1,1],\"activation\":\"linear\",\"use_bias\":false,\"bias_initializer\":{\"class_name\":\"Zeros\",\"config\":{}},\"bias_regularizer\":null,\"activity_regularizer\":null,\"bias_constraint\":null,\"name\":\"conv2d_Conv2D38\",\"trainable\":true},\"inbound_nodes\":[[[\"batch_normalization_BatchNormalization56\",0,0,{}]]]},{\"name\":\"batch_normalization_BatchNormalization57\",\"class_name\":\"BatchNormalization\",\"config\":{\"axis\":-1,\"momentum\":0.99,\"epsilon\":0.001,\"center\":true,\"scale\":true,\"beta_initializer\":{\"class_name\":\"Zeros\",\"config\":{}},\"gamma_initializer\":{\"class_name\":\"Ones\",\"config\":{}},\"moving_mean_initializer\":{\"class_name\":\"Zeros\",\"config\":{}},\"moving_variance_initializer\":{\"class_name\":\"Ones\",\"config\":{}},\"beta_regularizer\":null,\"gamma_regularizer\":null,\"beta_constraint\":null,\"gamma_constraint\":null,\"name\":\"batch_normalization_BatchNormalization57\",\"trainable\":true},\"inbound_nodes\":[[[\"conv2d_Conv2D38\",0,0,{}]]]},{\"name\":\"activation_Activation38\",\"class_name\":\"Activation\",\"config\":{\"activation\":\"swish\",\"name\":\"activation_Activation38\",\"trainable\":true},\"inbound_nodes\":[[[\"batch_normalization_BatchNormalization57\",0,0,{}]]]},{\"name\":\"depthwise_conv2d_DepthwiseConv2D20\",\"class_name\":\"DepthwiseConv2D\",\"config\":{\"kernel_size\":[5,5],\"strides\":[1,1],\"padding\":\"same\",\"data_format\":\"channels_last\",\"dilation_rate\":[1,1],\"activation\":\"linear\",\"use_bias\":false,\"bias_initializer\":{\"class_name\":\"Zeros\",\"config\":{}},\"bias_regularizer\":null,\"activity_regularizer\":null,\"bias_constraint\":null,\"name\":\"depthwise_conv2d_DepthwiseConv2D20\",\"trainable\":true,\"depth_multiplier\":1,\"depthwise_initializer\":{\"class_name\":\"VarianceScaling\",\"config\":{\"scale\":1,\"mode\":\"fan_avg\",\"distribution\":\"normal\",\"seed\":null}},\"depthwise_regularizer\":null,\"depthwise_constraint\":null},\"inbound_nodes\":[[[\"activation_Activation38\",0,0,{}]]]},{\"name\":\"batch_normalization_BatchNormalization58\",\"class_name\":\"BatchNormalization\",\"config\":{\"axis\":-1,\"momentum\":0.99,\"epsilon\":0.001,\"center\":true,\"scale\":true,\"beta_initializer\":{\"class_name\":\"Zeros\",\"config\":{}},\"gamma_initializer\":{\"class_name\":\"Ones\",\"config\":{}},\"moving_mean_initializer\":{\"class_name\":\"Zeros\",\"config\":{}},\"moving_variance_initializer\":{\"class_name\":\"Ones\",\"config\":{}},\"beta_regularizer\":null,\"gamma_regularizer\":null,\"beta_constraint\":null,\"gamma_constraint\":null,\"name\":\"batch_normalization_BatchNormalization58\",\"trainable\":true},\"inbound_nodes\":[[[\"depthwise_conv2d_DepthwiseConv2D20\",0,0,{}]]]},{\"name\":\"activation_Activation39\",\"class_name\":\"Activation\",\"config\":{\"activation\":\"swish\",\"name\":\"activation_Activation39\",\"trainable\":true},\"inbound_nodes\":[[[\"batch_normalization_BatchNormalization58\",0,0,{}]]]},{\"name\":\"global_average_pooling2d_GlobalAveragePooling2D20\",\"class_name\":\"GlobalAveragePooling2D\",\"config\":{\"data_format\":\"channels_last\",\"name\":\"global_average_pooling2d_GlobalAveragePooling2D20\",\"trainable\":true},\"inbound_nodes\":[[[\"activation_Activation39\",0,0,{}]]]},{\"name\":\"reshape_Reshape20\",\"class_name\":\"Reshape\",\"config\":{\"target_shape\":[1,1,1392],\"name\":\"reshape_Reshape20\",\"trainable\":true},\"inbound_nodes\":[[[\"global_average_pooling2d_GlobalAveragePooling2D20\",0,0,{}]]]},{\"name\":\"dense_Dense39\",\"class_name\":\"Dense\",\"config\":{\"units\":58,\"activation\":\"swish\",\"use_bias\":true,\"kernel_initializer\":{\"class_name\":\"VarianceScaling\",\"config\":{\"scale\":2,\"mode\":\"fan_in\",\"distribution\":\"normal\",\"seed\":null}},\"bias_initializer\":{\"class_name\":\"Zeros\",\"config\":{}},\"kernel_regularizer\":null,\"bias_regularizer\":null,\"activity_regularizer\":null,\"kernel_constraint\":null,\"bias_constraint\":null,\"name\":\"dense_Dense39\",\"trainable\":true},\"inbound_nodes\":[[[\"reshape_Reshape20\",0,0,{}]]]},{\"name\":\"dense_Dense40\",\"class_name\":\"Dense\",\"config\":{\"units\":1392,\"activation\":\"sigmoid\",\"use_bias\":true,\"kernel_initializer\":{\"class_name\":\"VarianceScaling\",\"config\":{\"scale\":2,\"mode\":\"fan_in\",\"distribution\":\"normal\",\"seed\":null}},\"bias_initializer\":{\"class_name\":\"Zeros\",\"config\":{}},\"kernel_regularizer\":null,\"bias_regularizer\":null,\"activity_regularizer\":null,\"kernel_constraint\":null,\"bias_constraint\":null,\"name\":\"dense_Dense40\",\"trainable\":true},\"inbound_nodes\":[[[\"dense_Dense39\",0,0,{}]]]},{\"name\":\"multiply_Multiply20\",\"class_name\":\"Multiply\",\"config\":{\"name\":\"multiply_Multiply20\",\"trainable\":true},\"inbound_nodes\":[[[\"activation_Activation39\",0,0,{}],[\"dense_Dense40\",0,0,{}]]]},{\"name\":\"conv2d_Conv2D39\",\"class_name\":\"Conv2D\",\"config\":{\"filters\":232,\"kernel_initializer\":{\"class_name\":\"VarianceScaling\",\"config\":{\"scale\":2,\"mode\":\"fan_in\",\"distribution\":\"normal\",\"seed\":null}},\"kernel_regularizer\":null,\"kernel_constraint\":null,\"kernel_size\":[1,1],\"strides\":[1,1],\"padding\":\"same\",\"data_format\":\"channels_last\",\"dilation_rate\":[1,1],\"activation\":\"linear\",\"use_bias\":false,\"bias_initializer\":{\"class_name\":\"Zeros\",\"config\":{}},\"bias_regularizer\":null,\"activity_regularizer\":null,\"bias_constraint\":null,\"name\":\"conv2d_Conv2D39\",\"trainable\":true},\"inbound_nodes\":[[[\"multiply_Multiply20\",0,0,{}]]]},{\"name\":\"batch_normalization_BatchNormalization59\",\"class_name\":\"BatchNormalization\",\"config\":{\"axis\":-1,\"momentum\":0.99,\"epsilon\":0.001,\"center\":true,\"scale\":true,\"beta_initializer\":{\"class_name\":\"Zeros\",\"config\":{}},\"gamma_initializer\":{\"class_name\":\"Ones\",\"config\":{}},\"moving_mean_initializer\":{\"class_name\":\"Zeros\",\"config\":{}},\"moving_variance_initializer\":{\"class_name\":\"Ones\",\"config\":{}},\"beta_regularizer\":null,\"gamma_regularizer\":null,\"beta_constraint\":null,\"gamma_constraint\":null,\"name\":\"batch_normalization_BatchNormalization59\",\"trainable\":true},\"inbound_nodes\":[[[\"conv2d_Conv2D39\",0,0,{}]]]},{\"name\":\"dropout_Dropout14\",\"class_name\":\"Dropout\",\"config\":{\"rate\":0.13333333333333333,\"noise_shape\":null,\"seed\":null,\"name\":\"dropout_Dropout14\",\"trainable\":true},\"inbound_nodes\":[[[\"batch_normalization_BatchNormalization59\",0,0,{}]]]},{\"name\":\"add_Add14\",\"class_name\":\"Add\",\"config\":{\"name\":\"add_Add14\",\"trainable\":true},\"inbound_nodes\":[[[\"dropout_Dropout14\",0,0,{}],[\"batch_normalization_BatchNormalization56\",0,0,{}]]]},{\"name\":\"conv2d_Conv2D40\",\"class_name\":\"Conv2D\",\"config\":{\"filters\":1392,\"kernel_initializer\":{\"class_name\":\"VarianceScaling\",\"config\":{\"scale\":2,\"mode\":\"fan_in\",\"distribution\":\"normal\",\"seed\":null}},\"kernel_regularizer\":null,\"kernel_constraint\":null,\"kernel_size\":[1,1],\"strides\":[1,1],\"padding\":\"same\",\"data_format\":\"channels_last\",\"dilation_rate\":[1,1],\"activation\":\"linear\",\"use_bias\":false,\"bias_initializer\":{\"class_name\":\"Zeros\",\"config\":{}},\"bias_regularizer\":null,\"activity_regularizer\":null,\"bias_constraint\":null,\"name\":\"conv2d_Conv2D40\",\"trainable\":true},\"inbound_nodes\":[[[\"add_Add14\",0,0,{}]]]},{\"name\":\"batch_normalization_BatchNormalization60\",\"class_name\":\"BatchNormalization\",\"config\":{\"axis\":-1,\"momentum\":0.99,\"epsilon\":0.001,\"center\":true,\"scale\":true,\"beta_initializer\":{\"class_name\":\"Zeros\",\"config\":{}},\"gamma_initializer\":{\"class_name\":\"Ones\",\"config\":{}},\"moving_mean_initializer\":{\"class_name\":\"Zeros\",\"config\":{}},\"moving_variance_initializer\":{\"class_name\":\"Ones\",\"config\":{}},\"beta_regularizer\":null,\"gamma_regularizer\":null,\"beta_constraint\":null,\"gamma_constraint\":null,\"name\":\"batch_normalization_BatchNormalization60\",\"trainable\":true},\"inbound_nodes\":[[[\"conv2d_Conv2D40\",0,0,{}]]]},{\"name\":\"activation_Activation40\",\"class_name\":\"Activation\",\"config\":{\"activation\":\"swish\",\"name\":\"activation_Activation40\",\"trainable\":true},\"inbound_nodes\":[[[\"batch_normalization_BatchNormalization60\",0,0,{}]]]},{\"name\":\"depthwise_conv2d_DepthwiseConv2D21\",\"class_name\":\"DepthwiseConv2D\",\"config\":{\"kernel_size\":[5,5],\"strides\":[1,1],\"padding\":\"same\",\"data_format\":\"channels_last\",\"dilation_rate\":[1,1],\"activation\":\"linear\",\"use_bias\":false,\"bias_initializer\":{\"class_name\":\"Zeros\",\"config\":{}},\"bias_regularizer\":null,\"activity_regularizer\":null,\"bias_constraint\":null,\"name\":\"depthwise_conv2d_DepthwiseConv2D21\",\"trainable\":true,\"depth_multiplier\":1,\"depthwise_initializer\":{\"class_name\":\"VarianceScaling\",\"config\":{\"scale\":1,\"mode\":\"fan_avg\",\"distribution\":\"normal\",\"seed\":null}},\"depthwise_regularizer\":null,\"depthwise_constraint\":null},\"inbound_nodes\":[[[\"activation_Activation40\",0,0,{}]]]},{\"name\":\"batch_normalization_BatchNormalization61\",\"class_name\":\"BatchNormalization\",\"config\":{\"axis\":-1,\"momentum\":0.99,\"epsilon\":0.001,\"center\":true,\"scale\":true,\"beta_initializer\":{\"class_name\":\"Zeros\",\"config\":{}},\"gamma_initializer\":{\"class_name\":\"Ones\",\"config\":{}},\"moving_mean_initializer\":{\"class_name\":\"Zeros\",\"config\":{}},\"moving_variance_initializer\":{\"class_name\":\"Ones\",\"config\":{}},\"beta_regularizer\":null,\"gamma_regularizer\":null,\"beta_constraint\":null,\"gamma_constraint\":null,\"name\":\"batch_normalization_BatchNormalization61\",\"trainable\":true},\"inbound_nodes\":[[[\"depthwise_conv2d_DepthwiseConv2D21\",0,0,{}]]]},{\"name\":\"activation_Activation41\",\"class_name\":\"Activation\",\"config\":{\"activation\":\"swish\",\"name\":\"activation_Activation41\",\"trainable\":true},\"inbound_nodes\":[[[\"batch_normalization_BatchNormalization61\",0,0,{}]]]},{\"name\":\"global_average_pooling2d_GlobalAveragePooling2D21\",\"class_name\":\"GlobalAveragePooling2D\",\"config\":{\"data_format\":\"channels_last\",\"name\":\"global_average_pooling2d_GlobalAveragePooling2D21\",\"trainable\":true},\"inbound_nodes\":[[[\"activation_Activation41\",0,0,{}]]]},{\"name\":\"reshape_Reshape21\",\"class_name\":\"Reshape\",\"config\":{\"target_shape\":[1,1,1392],\"name\":\"reshape_Reshape21\",\"trainable\":true},\"inbound_nodes\":[[[\"global_average_pooling2d_GlobalAveragePooling2D21\",0,0,{}]]]},{\"name\":\"dense_Dense41\",\"class_name\":\"Dense\",\"config\":{\"units\":58,\"activation\":\"swish\",\"use_bias\":true,\"kernel_initializer\":{\"class_name\":\"VarianceScaling\",\"config\":{\"scale\":2,\"mode\":\"fan_in\",\"distribution\":\"normal\",\"seed\":null}},\"bias_initializer\":{\"class_name\":\"Zeros\",\"config\":{}},\"kernel_regularizer\":null,\"bias_regularizer\":null,\"activity_regularizer\":null,\"kernel_constraint\":null,\"bias_constraint\":null,\"name\":\"dense_Dense41\",\"trainable\":true},\"inbound_nodes\":[[[\"reshape_Reshape21\",0,0,{}]]]},{\"name\":\"dense_Dense42\",\"class_name\":\"Dense\",\"config\":{\"units\":1392,\"activation\":\"sigmoid\",\"use_bias\":true,\"kernel_initializer\":{\"class_name\":\"VarianceScaling\",\"config\":{\"scale\":2,\"mode\":\"fan_in\",\"distribution\":\"normal\",\"seed\":null}},\"bias_initializer\":{\"class_name\":\"Zeros\",\"config\":{}},\"kernel_regularizer\":null,\"bias_regularizer\":null,\"activity_regularizer\":null,\"kernel_constraint\":null,\"bias_constraint\":null,\"name\":\"dense_Dense42\",\"trainable\":true},\"inbound_nodes\":[[[\"dense_Dense41\",0,0,{}]]]},{\"name\":\"multiply_Multiply21\",\"class_name\":\"Multiply\",\"config\":{\"name\":\"multiply_Multiply21\",\"trainable\":true},\"inbound_nodes\":[[[\"activation_Activation41\",0,0,{}],[\"dense_Dense42\",0,0,{}]]]},{\"name\":\"conv2d_Conv2D41\",\"class_name\":\"Conv2D\",\"config\":{\"filters\":232,\"kernel_initializer\":{\"class_name\":\"VarianceScaling\",\"config\":{\"scale\":2,\"mode\":\"fan_in\",\"distribution\":\"normal\",\"seed\":null}},\"kernel_regularizer\":null,\"kernel_constraint\":null,\"kernel_size\":[1,1],\"strides\":[1,1],\"padding\":\"same\",\"data_format\":\"channels_last\",\"dilation_rate\":[1,1],\"activation\":\"linear\",\"use_bias\":false,\"bias_initializer\":{\"class_name\":\"Zeros\",\"config\":{}},\"bias_regularizer\":null,\"activity_regularizer\":null,\"bias_constraint\":null,\"name\":\"conv2d_Conv2D41\",\"trainable\":true},\"inbound_nodes\":[[[\"multiply_Multiply21\",0,0,{}]]]},{\"name\":\"batch_normalization_BatchNormalization62\",\"class_name\":\"BatchNormalization\",\"config\":{\"axis\":-1,\"momentum\":0.99,\"epsilon\":0.001,\"center\":true,\"scale\":true,\"beta_initializer\":{\"class_name\":\"Zeros\",\"config\":{}},\"gamma_initializer\":{\"class_name\":\"Ones\",\"config\":{}},\"moving_mean_initializer\":{\"class_name\":\"Zeros\",\"config\":{}},\"moving_variance_initializer\":{\"class_name\":\"Ones\",\"config\":{}},\"beta_regularizer\":null,\"gamma_regularizer\":null,\"beta_constraint\":null,\"gamma_constraint\":null,\"name\":\"batch_normalization_BatchNormalization62\",\"trainable\":true},\"inbound_nodes\":[[[\"conv2d_Conv2D41\",0,0,{}]]]},{\"name\":\"dropout_Dropout15\",\"class_name\":\"Dropout\",\"config\":{\"rate\":0.16666666666666669,\"noise_shape\":null,\"seed\":null,\"name\":\"dropout_Dropout15\",\"trainable\":true},\"inbound_nodes\":[[[\"batch_normalization_BatchNormalization62\",0,0,{}]]]},{\"name\":\"add_Add15\",\"class_name\":\"Add\",\"config\":{\"name\":\"add_Add15\",\"trainable\":true},\"inbound_nodes\":[[[\"dropout_Dropout15\",0,0,{}],[\"add_Add14\",0,0,{}]]]},{\"name\":\"conv2d_Conv2D42\",\"class_name\":\"Conv2D\",\"config\":{\"filters\":1392,\"kernel_initializer\":{\"class_name\":\"VarianceScaling\",\"config\":{\"scale\":2,\"mode\":\"fan_in\",\"distribution\":\"normal\",\"seed\":null}},\"kernel_regularizer\":null,\"kernel_constraint\":null,\"kernel_size\":[1,1],\"strides\":[1,1],\"padding\":\"same\",\"data_format\":\"channels_last\",\"dilation_rate\":[1,1],\"activation\":\"linear\",\"use_bias\":false,\"bias_initializer\":{\"class_name\":\"Zeros\",\"config\":{}},\"bias_regularizer\":null,\"activity_regularizer\":null,\"bias_constraint\":null,\"name\":\"conv2d_Conv2D42\",\"trainable\":true},\"inbound_nodes\":[[[\"add_Add15\",0,0,{}]]]},{\"name\":\"batch_normalization_BatchNormalization63\",\"class_name\":\"BatchNormalization\",\"config\":{\"axis\":-1,\"momentum\":0.99,\"epsilon\":0.001,\"center\":true,\"scale\":true,\"beta_initializer\":{\"class_name\":\"Zeros\",\"config\":{}},\"gamma_initializer\":{\"class_name\":\"Ones\",\"config\":{}},\"moving_mean_initializer\":{\"class_name\":\"Zeros\",\"config\":{}},\"moving_variance_initializer\":{\"class_name\":\"Ones\",\"config\":{}},\"beta_regularizer\":null,\"gamma_regularizer\":null,\"beta_constraint\":null,\"gamma_constraint\":null,\"name\":\"batch_normalization_BatchNormalization63\",\"trainable\":true},\"inbound_nodes\":[[[\"conv2d_Conv2D42\",0,0,{}]]]},{\"name\":\"activation_Activation42\",\"class_name\":\"Activation\",\"config\":{\"activation\":\"swish\",\"name\":\"activation_Activation42\",\"trainable\":true},\"inbound_nodes\":[[[\"batch_normalization_BatchNormalization63\",0,0,{}]]]},{\"name\":\"depthwise_conv2d_DepthwiseConv2D22\",\"class_name\":\"DepthwiseConv2D\",\"config\":{\"kernel_size\":[5,5],\"strides\":[1,1],\"padding\":\"same\",\"data_format\":\"channels_last\",\"dilation_rate\":[1,1],\"activation\":\"linear\",\"use_bias\":false,\"bias_initializer\":{\"class_name\":\"Zeros\",\"config\":{}},\"bias_regularizer\":null,\"activity_regularizer\":null,\"bias_constraint\":null,\"name\":\"depthwise_conv2d_DepthwiseConv2D22\",\"trainable\":true,\"depth_multiplier\":1,\"depthwise_initializer\":{\"class_name\":\"VarianceScaling\",\"config\":{\"scale\":1,\"mode\":\"fan_avg\",\"distribution\":\"normal\",\"seed\":null}},\"depthwise_regularizer\":null,\"depthwise_constraint\":null},\"inbound_nodes\":[[[\"activation_Activation42\",0,0,{}]]]},{\"name\":\"batch_normalization_BatchNormalization64\",\"class_name\":\"BatchNormalization\",\"config\":{\"axis\":-1,\"momentum\":0.99,\"epsilon\":0.001,\"center\":true,\"scale\":true,\"beta_initializer\":{\"class_name\":\"Zeros\",\"config\":{}},\"gamma_initializer\":{\"class_name\":\"Ones\",\"config\":{}},\"moving_mean_initializer\":{\"class_name\":\"Zeros\",\"config\":{}},\"moving_variance_initializer\":{\"class_name\":\"Ones\",\"config\":{}},\"beta_regularizer\":null,\"gamma_regularizer\":null,\"beta_constraint\":null,\"gamma_constraint\":null,\"name\":\"batch_normalization_BatchNormalization64\",\"trainable\":true},\"inbound_nodes\":[[[\"depthwise_conv2d_DepthwiseConv2D22\",0,0,{}]]]},{\"name\":\"activation_Activation43\",\"class_name\":\"Activation\",\"config\":{\"activation\":\"swish\",\"name\":\"activation_Activation43\",\"trainable\":true},\"inbound_nodes\":[[[\"batch_normalization_BatchNormalization64\",0,0,{}]]]},{\"name\":\"global_average_pooling2d_GlobalAveragePooling2D22\",\"class_name\":\"GlobalAveragePooling2D\",\"config\":{\"data_format\":\"channels_last\",\"name\":\"global_average_pooling2d_GlobalAveragePooling2D22\",\"trainable\":true},\"inbound_nodes\":[[[\"activation_Activation43\",0,0,{}]]]},{\"name\":\"reshape_Reshape22\",\"class_name\":\"Reshape\",\"config\":{\"target_shape\":[1,1,1392],\"name\":\"reshape_Reshape22\",\"trainable\":true},\"inbound_nodes\":[[[\"global_average_pooling2d_GlobalAveragePooling2D22\",0,0,{}]]]},{\"name\":\"dense_Dense43\",\"class_name\":\"Dense\",\"config\":{\"units\":58,\"activation\":\"swish\",\"use_bias\":true,\"kernel_initializer\":{\"class_name\":\"VarianceScaling\",\"config\":{\"scale\":2,\"mode\":\"fan_in\",\"distribution\":\"normal\",\"seed\":null}},\"bias_initializer\":{\"class_name\":\"Zeros\",\"config\":{}},\"kernel_regularizer\":null,\"bias_regularizer\":null,\"activity_regularizer\":null,\"kernel_constraint\":null,\"bias_constraint\":null,\"name\":\"dense_Dense43\",\"trainable\":true},\"inbound_nodes\":[[[\"reshape_Reshape22\",0,0,{}]]]},{\"name\":\"dense_Dense44\",\"class_name\":\"Dense\",\"config\":{\"units\":1392,\"activation\":\"sigmoid\",\"use_bias\":true,\"kernel_initializer\":{\"class_name\":\"VarianceScaling\",\"config\":{\"scale\":2,\"mode\":\"fan_in\",\"distribution\":\"normal\",\"seed\":null}},\"bias_initializer\":{\"class_name\":\"Zeros\",\"config\":{}},\"kernel_regularizer\":null,\"bias_regularizer\":null,\"activity_regularizer\":null,\"kernel_constraint\":null,\"bias_constraint\":null,\"name\":\"dense_Dense44\",\"trainable\":true},\"inbound_nodes\":[[[\"dense_Dense43\",0,0,{}]]]},{\"name\":\"multiply_Multiply22\",\"class_name\":\"Multiply\",\"config\":{\"name\":\"multiply_Multiply22\",\"trainable\":true},\"inbound_nodes\":[[[\"activation_Activation43\",0,0,{}],[\"dense_Dense44\",0,0,{}]]]},{\"name\":\"conv2d_Conv2D43\",\"class_name\":\"Conv2D\",\"config\":{\"filters\":232,\"kernel_initializer\":{\"class_name\":\"VarianceScaling\",\"config\":{\"scale\":2,\"mode\":\"fan_in\",\"distribution\":\"normal\",\"seed\":null}},\"kernel_regularizer\":null,\"kernel_constraint\":null,\"kernel_size\":[1,1],\"strides\":[1,1],\"padding\":\"same\",\"data_format\":\"channels_last\",\"dilation_rate\":[1,1],\"activation\":\"linear\",\"use_bias\":false,\"bias_initializer\":{\"class_name\":\"Zeros\",\"config\":{}},\"bias_regularizer\":null,\"activity_regularizer\":null,\"bias_constraint\":null,\"name\":\"conv2d_Conv2D43\",\"trainable\":true},\"inbound_nodes\":[[[\"multiply_Multiply22\",0,0,{}]]]},{\"name\":\"batch_normalization_BatchNormalization65\",\"class_name\":\"BatchNormalization\",\"config\":{\"axis\":-1,\"momentum\":0.99,\"epsilon\":0.001,\"center\":true,\"scale\":true,\"beta_initializer\":{\"class_name\":\"Zeros\",\"config\":{}},\"gamma_initializer\":{\"class_name\":\"Ones\",\"config\":{}},\"moving_mean_initializer\":{\"class_name\":\"Zeros\",\"config\":{}},\"moving_variance_initializer\":{\"class_name\":\"Ones\",\"config\":{}},\"beta_regularizer\":null,\"gamma_regularizer\":null,\"beta_constraint\":null,\"gamma_constraint\":null,\"name\":\"batch_normalization_BatchNormalization65\",\"trainable\":true},\"inbound_nodes\":[[[\"conv2d_Conv2D43\",0,0,{}]]]},{\"name\":\"dropout_Dropout16\",\"class_name\":\"Dropout\",\"config\":{\"rate\":0.2,\"noise_shape\":null,\"seed\":null,\"name\":\"d…
          "name": "weight254",
          "shape": [
            1,
            1,
            1392,
            232
          ],
          "dtype": "float32",
          "group": "model",
          "filename": "weights.254.bin"
        },
        {
          "name": "weight255",
          "shape": [
            232
          ],
          "dtype": "float32",
          "group": "model",
          "filename": "weights.255.bin"
        },
        {
          "name": "weight256",
          "shape": [
            232
          ],
          "dtype": "float32",
          "group": "model",
          "filename": "weights.256.bin"
        },
        {
          "name": "weight257",
          "shape": [
            1,
            1,
            232,
            1392
          ],
          "dtype": "float32",
          "group": "model",
          "filename": "weights.257.bin"
        },
        {
          "name": "weight258",
          "shape": [
            1392
          ],
          "dtype": "float32",
          "group": "model",
          "filename": "weights.258.bin"
        },
        {
          "name": "weight259",
          "shape": [
            1392
          ],
          "dtype": "float32",
          "group": "model",
          "filename": "weights.259.bin"
        },
        {
          "name": "weight260",
          "shape": [
            5,
            5,
            1392,
            1
          ],
          "dtype": "float32",
          "group": "model",
          "filename": "weights.260.bin"
        },
        {
          "name": "weight261",
          "shape": [
            1392
          ],
          "dtype": "float32",
          "group": "model",
          "filename": "weights.261.bin"
        },
        {
          "name": "weight262",
          "shape": [
            1392
          ],
          "dtype": "float32",
          "group": "model",
          "filename": "weights.262.bin"
        },
        {
          "name": "weight263",
          "shape": [
            1392,
            58
          ],
          "dtype": "float32",
          "group": "model",
          "filename": "weights.263.bin"
        },
        {
          "name": "weight264",
          "shape": [
            58
          ],
          "dtype": "float32",
          "group": "model",
          "filename": "weights.264.bin"
        },
        {
          "name": "weight265",
          "shape": [
            58,
            1392
          ],
          "dtype": "float32",
          "group": "model",
          "filename": "weights.265.bin"
        },
        {
          "name": "weight266",
          "shape": [
            1392
          ],
          "dtype": "float32",
          "group": "model",
          "filename": "weights.266.bin"
        },
        {
          "name": "weight267",
          "shape": [
            1,
            1,
            1392,
            232
          ],
          "dtype": "float32",
          "group": "model",
          "filename": "weights.267.bin"
        },
        {
          "name": "weight268",
          "shape": [
            232
          ],
          "dtype": "float32",
          "group": "model",
          "filename": "weights.268.bin"
        },
        {
          "name": "weight269",
          "shape": [
            232
          ],
          "dtype": "float32",
          "group": "model",
          "filename": "weights.269.bin"
        },
        {
          "name": "weight270",
          "shape": [
            1,
            1,
            232,
            1392
          ],
          "dtype": "float32",
          "group": "model",
          "filename": "weights.270.bin"
        },
        {
          "name": "weight271",
          "shape": [
            1392
          ],
          "dtype": "float32",
          "group": "model",
          "filename": "weights.271.bin"
        },
        {
          "name": "weight272",
          "shape": [
            1392
          ],
          "dtype": "float32",
          "group": "model",
          "filename": "weights.272.bin"
        },
        {
          "name": "weight273",
          "shape": [
            5,
            5,
            1392,
            1
          ],
          "dtype": "float32",
          "group": "model",
          "filename": "weights.273.bin"
        },
        {
          "name": "weight274",
          "shape": [
            1392
          ],
          "dtype": "float32",
          "group": "model",
          "filename": "weights.274.bin"
        },
        {
          "name": "weight275",
          "shape": [
            1392
          ],
          "dtype": "float32",
          "group": "model",
          "filename": "weights.275.bin"
        },
        {
          "name": "weight276",
          "shape": [
            1392,
            58
          ],
          "dtype": "float32",
          "group": "model",
          "filename": "weights.276.bin"
        },
        {
          "name": "weight277",
          "shape": [
            58
          ],
          "dtype": "float32",
          "group": "model",
          "filename": "weights.277.bin"
        },
        {
          "name": "weight278",
          "shape": [
            58,
            1392
          ],
          "dtype": "float32",
          "group": "model",
          "filename": "weights.278.bin"
        },
        {
          "name": "weight279",
          "shape": [
            1392
          ],
          "dtype": "float32",
          "group": "model",
          "filename": "weights.279.bin"
        },
        {
          "name": "weight280",
          "shape": [
            1,
            1,
            1392,
            232
          ],
          "dtype": "float32",
          "group": "model",
          "filename": "weights.280.bin"
        },
        {
          "name": "weight281",
          "shape": [
            232
          ],
          "dtype": "float32",
          "group": "model",
          "filename": "weights.281.bin"
        },
        {
          "name": "weight282",
          "shape": [
            232
          ],
          "dtype": "float32",
          "group": "model",
          "filename": "weights.282.bin"
        },
        {
          "name": "weight283",
          "shape": [
            1,
            1,
            232,
            1392
          ],
          "dtype": "float32",
          "group": "model",
          "filename": "weights.283.bin"
        },
        {
          "name": "weight284",
          "shape": [
            1392
          ],
          "dtype": "float32",
          "group": "model",
          "filename": "weights.284.bin"
        },
        {
          "name": "weight285",
          "shape": [
            1392
          ],
          "dtype": "float32",
          "group": "model",
          "filename": "weights.285.bin"
        },
        {
          "name": "weight286",
          "shape": [
            5,
            5,
            1392,
            1
          ],
          "dtype": "float32",
          "group": "model",
          "filename": "weights.286.bin"
        },
        {
          "name": "weight287",
          "shape": [
            1392
          ],
          "dtype": "float32",
          "group": "model",
          "filename": "weights.287.bin"
        },
        {
          "name": "weight288",
          "shape": [
            1392
          ],
          "dtype": "float32",
          "group": "model",
          "filename": "weights.288.bin"
        },
        {
          "name": "weight289",
          "shape": [
            1392,
            58
          ],
          "dtype": "float32",
          "group": "model",
          "filename": "weights.289.bin"
        },
        {
          "name": "weight290",
          "shape": [
            58
          ],
          "dtype": "float32",
          "group": "model",
          "filename": "weights.290.bin"
        },
        {
          "name": "weight291",
          "shape": [
            58,
            1392
          ],
          "dtype": "float32",
          "group": "model",
          "filename": "weights.291.bin"
        },
        {
          "name": "weight292",
          "shape": [
            1392
          ],
          "dtype": "float32",
          "group": "model",
          "filename": "weights.292.bin"
        },
        {
          "name": "weight293",
          "shape": [
            1,
            1,
            1392,
            232
          ],
          "dtype": "float32",
          "group": "model",
          "filename": "weights.293.bin"
        },
        {
          "name": "weight294",
          "shape": [
            232
          ],
          "dtype": "float32",
          "group": "model",
          "filename": "weights.294.bin"
        },
        {
          "name": "weight295",
          "shape": [
            232
          ],
          "dtype": "float32",
          "group": "model",
          "filename": "weights.295.bin"
        },
        {
          "name": "weight296",
          "shape": [
            1,
            1,
            232,
            1392
          ],
          "dtype": "float32",
          "group": "model",
          "filename": "weights.296.bin"
        },
        {
          "name": "weight297",
          "shape": [
            1392
          ],
          "dtype": "float32",
          "group": "model",
          "filename": "weights.297.bin"
        },
        {
          "name": "weight298",
          "shape": [
            1392
          ],
          "dtype": "float32",
          "group": "model",
          "filename": "weights.298.bin"
        },
        {
          "name": "weight299",
          "shape": [
            5,
            5,
            1392,
            1
          ],
          "dtype": "float32",
          "group": "model",
          "filename": "weights.299.bin"
        },
        {
          "name": "weight300",
          "shape": [
            1392
          ],
          "dtype": "float32",
          "group": "model",
          "filename": "weights.300.bin"
        },
        {
          "name": "weight301",
          "shape": [
            1392
          ],
          "dtype": "float32",
          "group": "model",
          "filename": "weights.301.bin"
        },
        {
          "name": "weight302",
          "shape": [
            1392,
            58
          ],
          "dtype": "float32",
          "group": "model",
          "filename": "weights.302.bin"
        },
        {
          "name": "weight303",
          "shape": [
            58
          ],
          "dtype": "float32",
          "group": "model",
          "filename": "weights.303.bin"
        },
        {
          "name": "weight304",
          "shape": [
            58,
            1392
          ],
          "dtype": "float32",
          "group": "model",
          "filename": "weights.304.bin"
        },
        {
          "name": "weight305",
          "shape": [
            1392
          ],
          "dtype": "float32",
          "group": "model",
          "filename": "weights.305.bin"
        },
        {
          "name": "weight306",
          "shape": [
            1,
            1,
            1392,
            232
          ],
          "dtype": "float32",
          "group": "model",
          "filename": "weights.306.bin"
        },
        {
          "name": "weight307",
          "shape": [
            232
          ],
          "dtype": "float32",
          "group": "model",
          "filename": "weights.307.bin"
        },
        {
          "name": "weight308",
          "shape": [
            232
          ],
          "dtype": "float32",
          "group": "model",
          "filename": "weights.308.bin"
        },
        {
          "name": "weight309",
          "shape": [
            1,
            1,
            232,
            1392
          ],
          "dtype": "float32",
          "group": "model",
          "filename": "weights.309.bin"
        },
        {
          "name": "weight310",
          "shape": [
            1392
          ],
          "dtype": "float32",
          "group": "model",
          "filename": "weights.310.bin"
        },
        {
          "name": "weight311",
          "shape": [
            1392
          ],
          "dtype": "float32",
          "group": "model",
          "filename": "weights.311.bin"
        },
        {
          "name": "weight312",
          "shape": [
            3,
            3,
            1392,
            1
          ],
          "dtype": "float32",
          "group": "model",
          "filename": "weights.312.bin"
        },
        {
          "name": "weight313",
          "shape": [
            1392
          ],
          "dtype": "float32",
          "group": "model",
          "filename": "weights.313.bin"
        },
        {
          "name": "weight314",
          "shape": [
            1392
          ],
          "dtype": "float32",
          "group": "model",
          "filename": "weights.314.bin"
        },
        {
          "name": "weight315",
          "shape": [
            1392,
            58
          ],
          "dtype": "float32",
          "group": "model",
          "filename": "weights.315.bin"
        },
        {
          "name": "weight316",
          "shape": [
            58
          ],
          "dtype": "float32",
          "group": "model",
          "filename": "weights.316.bin"
        },
        {
          "name": "weight317",
          "shape": [
            58,
            1392
          ],
          "dtype": "float32",
          "group": "model",
          "filename": "weights.317.bin"
        },
        {
          "name": "weight318",
          "shape": [
            1392
          ],
          "dtype": "float32",
          "group": "model",
          "filename": "weights.318.bin"
        },
        {
          "name": "weight319",
          "shape": [
            1,
            1,
            1392,
            384
          ],
          "dtype": "float32",
          "group": "model",
          "filename": "weights.319.bin"
        },
        {
          "name": "weight320",
          "shape": [
            384
          ],
          "dtype": "float32",
          "group": "model",
          "filename": "weights.320.bin"
        },
        {
          "name": "weight321",
          "shape": [
            384
          ],
          "dtype": "float32",
          "group": "model",
          "filename": "weights.321.bin"
        },
        {
          "name": "weight322",
          "shape": [
            1,
            1,
            384,
            2304
          ],
          "dtype": "float32",
          "group": "model",
          "filename": "weights.322.bin"
        },
        {
          "name": "weight323",
          "shape": [
            2304
          ],
          "dtype": "float32",
          "group": "model",
          "filename": "weights.323.bin"
        },
        {
          "name": "weight324",
          "shape": [
            2304
          ],
          "dtype": "float32",
          "group": "model",
          "filename": "weights.324.bin"
        },
        {
          "name": "weight325",
          "shape": [
            3,
            3,
            2304,
            1
          ],
          "dtype": "float32",
          "group": "model",
          "filename": "weights.325.bin"
        },
        {
          "name": "weight326",
          "shape": [
            2304
          ],
          "dtype": "float32",
          "group": "model",
          "filename": "weights.326.bin"
        },
        {
          "name": "weight327",
          "shape": [
            2304
          ],
          "dtype": "float32",
          "group": "model",
          "filename": "weights.327.bin"
        },
        {
          "name": "weight328",
          "shape": [
            2304,
            96
          ],
          "dtype": "float32",
          "group": "model",
          "filename": "weights.328.bin"
        },
        {
          "name": "weight329",
          "shape": [
            96
          ],
          "dtype": "float32",
          "group": "model",
          "filename": "weights.329.bin"
        },
        {
          "name": "weight330",
          "shape": [
            96,
            2304
          ],
          "dtype": "float32",
          "group": "model",
          "filename": "weights.330.bin"
        },
        {
          "name": "weight331",
          "shape": [
            2304
          ],
          "dtype": "float32",
          "group": "model",
          "filename": "weights.331.bin"
        },
        {
          "name": "weight332",
          "shape": [
            1,
            1,
            2304,
            384
          ],
          "dtype": "float32",
          "group": "model",
          "filename": "weights.332.bin"
        },
        {
          "name": "weight333",
          "shape": [
            384
          ],
          "dtype": "float32",
          "group": "model",
          "filename": "weights.333.bin"
        },
        {
          "name": "weight334",
          "shape": [
            384
          ],
          "dtype": "float32",
          "group": "model",
          "filename": "weights.334.bin"
        },
        {
          "name": "weight335",
          "shape": [
            1,
            1,
            384,
            1536
          ],
          "dtype": "float32",
          "group": "model",
          "filename": "weights.335.bin"
        },
        {
          "name": "weight336",
          "shape": [
            1536
          ],
          "dtype": "float32",
          "group": "model",
          "filename": "weights.336.bin"
        },
        {
          "name": "weight337",
          "shape": [
            1536
          ],
          "dtype": "float32",
          "group": "model",
          "filename": "weights.337.bin"
        },
        {
          "name": "weight338",
          "shape": [
            1536,
            256
          ],
          "dtype": "float32",
          "group": "model",
          "filename": "weights.338.bin"
        },
        {
          "name": "weight339",
          "shape": [
            256
          ],
          "dtype": "float32",
          "group": "model",
          "filename": "weights.339.bin"
        },
        {
          "name": "weight340",
          "shape": [
            256,
            4
          ],
          "dtype": "float32",
          "group": "model",
          "filename": "weights.340.bin"
        },
        {
          "name": "weight341",
          "shape": [
            4
          ],
          "dtype": "float32",
          "group": "model",
          "filename": "weights.341.bin"
        },
        {
          "name": "weight342",
          "shape": [
            40
          ],
          "dtype": "float32",
          "group": "model",
          "filename": "weights.342.bin"
        },
        {
          "name": "weight343",
          "shape": [
            40
          ],
          "dtype": "float32",
          "group": "model",
          "filename": "weights.343.bin"
        },
        {
          "name": "weight344",
          "shape": [
            40
          ],
          "dtype": "float32",
          "group": "model",
          "filename": "weights.344.bin"
        },
        {
          "name": "weight345",
          "shape": [
            40
          ],
          "dtype": "float32",
          "group": "model",
          "filename": "weights.345.bin"
        },
        {
          "name": "weight346",
          "shape": [
            24
          ],
          "dtype": "float32",
          "group": "model",
          "filename": "weights.346.bin"
        },
        {
          "name": "weight347",
          "shape": [
            24
          ],
          "dtype": "float32",
          "group": "model",
          "filename": "weights.347.bin"
        },
        {
          "name": "weight348",
          "shape": [
            24
          ],
          "dtype": "float32",
          "group": "model",
          "filename": "weights.348.bin"
        },
        {
          "name": "weight349",
          "shape": [
            24
          ],
          "dtype": "float32",
          "group": "model",
          "filename": "weights.349.bin"
        },
        {
          "name": "weight350",
          "shape": [
            24
          ],
          "dtype": "float32",
          "group": "model",
          "filename": "weights.350.bin"
        },
        {
          "name": "weight351",
          "shape": [
            24
          ],
          "dtype": "float32",
          "group": "model",
          "filename": "weights.351.bin"
        },
        {
          "name": "weight352",
          "shape": [
            144
          ],
          "dtype": "float32",
          "group": "model",
          "filename": "weights.352.bin"
        },
        {
          "name": "weight353",
          "shape": [
            144
          ],
          "dtype": "float32",
          "group": "model",
          "filename": "weights.353.bin"
        },
        {
          "name": "weight354",
          "shape": [
            144
          ],
          "dtype": "float32",
          "group": "model",
          "filename": "weights.354.bin"
        },
        {
          "name": "weight355",
          "shape": [
            144
          ],
          "dtype": "float32",
          "group": "model",
          "filename": "weights.355.bin"
        },
        {
          "name": "weight356",
          "shape": [
            32
          ],
          "dtype": "float32",
          "group": "model",
          "filename": "weights.356.bin"
        },
        {
          "name": "weight357",
          "shape": [
            32
          ],
          "dtype": "float32",
          "group": "model",
          "filename": "weights.357.bin"
        },
        {
          "name": "weight358",
          "shape": [
            192
          ],
          "dtype": "float32",
          "group": "model",
          "filename": "weights.358.bin"
        },
        {
          "name": "weight359",
          "shape": [
            192
          ],
          "dtype": "float32",
          "group": "model",
          "filename": "weights.359.bin"
        },
        {
          "name": "weight360",
          "shape": [
            192
          ],
          "dtype": "float32",
          "group": "model",
          "filename": "weights.360.bin"
        },
        {
          "name": "weight361",
          "shape": [
            192
          ],
          "dtype": "float32",
          "group": "model",
          "filename": "weights.361.bin"
        },
        {
          "name": "weight362",
          "shape": [
            32
          ],
          "dtype": "float32",
          "group": "model",
          "filename": "weights.362.bin"
        },
        {
          "name": "weight363",
          "shape": [
            32
          ],
          "dtype": "float32",
          "group": "model",
          "filename": "weights.363.bin"
        },
        {
          "name": "weight364",
          "shape": [
            192
          ],
          "dtype": "float32",
          "group": "model",
          "filename": "weights.364.bin"
        },
        {
          "name": "weight365",
          "shape": [
            192
          ],
          "dtype": "float32",
          "group": "model",
          "filename": "weights.365.bin"
        },
        {
          "name": "weight366",
          "shape": [
            192
          ],
          "dtype": "float32",
          "group": "model",
          "filename": "weights.366.bin"
        },
        {
          "name": "weight367",
          "shape": [
            192
          ],
          "dtype": "float32",
          "group": "model",
          "filename": "weights.367.bin"
        },
        {
          "name": "weight368",
          "shape": [
            32
          ],
          "dtype": "float32",
          "group": "model",
          "filename": "weights.368.bin"
        },
        {
          "name": "weight369",
          "shape": [
            32
          ],
          "dtype": "float32",
          "group": "model",
          "filename": "weights.369.bin"
        },
        {
          "name": "weight370",
          "shape": [
            192
          ],
          "dtype": "float32",
          "group": "model",
          "filename": "weights.370.bin"
        },
        {
          "name": "weight371",
          "shape": [
            192
          ],
          "dtype": "float32",
          "group": "model",
          "filename": "weights.371.bin"
        },
        {
          "name": "weight372",
          "shape": [
            192
          ],
          "dtype": "float32",
          "group": "model",
          "filename": "weights.372.bin"
        },
        {
          "name": "weight373",
          "shape": [
            192
          ],
          "dtype": "float32",
          "group": "model",
          "filename": "weights.373.bin"
        },
        {
          "name": "weight374",
          "shape": [
            48
          ],
          "dtype": "float32",
          "group": "model",
          "filename": "weights.374.bin"
        },
        {
          "name": "weight375",
          "shape": [
            48
          ],
          "dtype": "float32",
          "group": "model",
          "filename": "weights.375.bin"
        },
        {
          "name": "weight376",
          "shape": [
            288
          ],
          "dtype": "float32",
          "group": "model",
          "filename": "weights.376.bin"
        },
        {
          "name": "weight377",
          "shape": [
            288
          ],
          "dtype": "float32",
          "group": "model",
          "filename": "weights.377.bin"
        },
        {
          "name": "weight378",
          "shape": [
            288
          ],
          "dtype": "float32",
          "group": "model",
          "filename": "weights.378.bin"
        },
        {
          "name": "weight379",
          "shape": [
            288
          ],
          "dtype": "float32",
          "group": "model",
          "filename": "weights.379.bin"
        },
        {
          "name": "weight380",
          "shape": [
            48
          ],
          "dtype": "float32",
          "group": "model",
          "filename": "weights.380.bin"
        },
        {
          "name": "weight381",
          "shape": [
            48
          ],
          "dtype": "float32",
          "group": "model",
          "filename": "weights.381.bin"
        },
        {
          "name": "weight382",
          "shape": [
            288
          ],
          "dtype": "float32",
          "group": "model",
          "filename": "weights.382.bin"
        },
        {
          "name": "weight383",
          "shape": [
            288
          ],
          "dtype": "float32",
          "group": "model",
          "filename": "weights.383.bin"
        },
        {
          "name": "weight384",
          "shape": [
            288
          ],
          "dtype": "float32",
          "group": "model",
          "filename": "weights.384.bin"
        },
        {
          "name": "weight385",
          "shape": [
            288
          ],
          "dtype": "float32",
          "group": "model",
          "filename": "weights.385.bin"
        },
        {
          "name": "weight386",
          "shape": [
            48
          ],
          "dtype": "float32",
          "group": "model",
          "filename": "weights.386.bin"
        },
        {
          "name": "weight387",
          "shape": [
            48
          ],
          "dtype": "float32",
          "group": "model",
          "filename": "weights.387.bin"
        },
        {
          "name": "weight388",
          "shape": [
            288
          ],
          "dtype": "float32",
          "group": "model",
          "filename": "weights.388.bin"
        },
        {
          "name": "weight389",
          "shape": [
            288
          ],
          "dtype": "float32",
          "group": "model",
          "filename": "weights.389.bin"
        },
        {
          "name": "weight390",
          "shape": [
            288
          ],
          "dtype": "float32",
          "group": "model",
          "filename": "weights.390.bin"
        },
        {
          "name": "weight391",
          "shape": [
            288
          ],
          "dtype": "float32",
          "group": "model",
          "filename": "weights.391.bin"
        },
        {
          "name": "weight392",
          "shape": [
            96
          ],
          "dtype": "float32",
          "group": "model",
          "filename": "weights.392.bin"
        },
        {
          "name": "weight393",
          "shape": [
            96
          ],
          "dtype": "float32",
          "group": "model",
          "filename": "weights.393.bin"
        },
        {
          "name": "weight394",
          "shape": [
            576
          ],
          "dtype": "float32",
          "group": "model",
          "filename": "weights.394.bin"
        },
        {
          "name": "weight395",
          "shape": [
            576
          ],
          "dtype": "float32",
          "group": "model",
          "filename": "weights.395.bin"
        },
        {
          "name": "weight396",
          "shape": [
            576
          ],
          "dtype": "float32",
          "group": "model",
          "filename": "weights.396.bin"
        },
        {
          "name": "weight397",
          "shape": [
            576
          ],
          "dtype": "float32",
          "group": "model",
          "filename": "weights.397.bin"
        },
        {
          "name": "weight398",
          "shape": [
            96
          ],
          "dtype": "float32",
          "group": "model",
          "filename": "weights.398.bin"
        },
        {
          "name": "weight399",
          "shape": [
            96
          ],
          "dtype": "float32",
          "group": "model",
          "filename": "weights.399.bin"
        },
        {
          "name": "weight400",
          "shape": [
            576
          ],
          "dtype": "float32",
          "group": "model",
          "filename": "weights.400.bin"
        },
        {
          "name": "weight401",
          "shape": [
            576
          ],
          "dtype": "float32",
          "group": "model",
          "filename": "weights.401.bin"
        },
        {
          "name": "weight402",
          "shape": [
            576
          ],
          "dtype": "float32",
          "group": "model",
          "filename": "weights.402.bin"
        },
        {
          "name": "weight403",
          "shape": [
            576
          ],
          "dtype": "float32",
          "group": "model",
          "filename": "weights.403.bin"
        },
        {
          "name": "weight404",
          "shape": [
            96
          ],
          "dtype": "float32",
          "group": "model",
          "filename": "weights.404.bin"
        },
        {
          "name": "weight405",
          "shape": [
            96
          ],
          "dtype": "float32",
          "group": "model",
          "filename": "weights.405.bin"
        },
        {
          "name": "weight406",
          "shape": [
            576
          ],
          "dtype": "float32",
          "group": "model",
          "filename": "weights.406.bin"
        },
        {
          "name": "weight407",
          "shape": [
            576
          ],
          "dtype": "float32",
          "group": "model",
          "filename": "weights.407.bin"
        },
        {
          "name": "weight408",
          "shape": [
            576
          ],
          "dtype": "float32",
          "group": "model",
          "filename": "weights.408.bin"
        },
        {
          "name": "weight409",
          "shape": [
            576
          ],
          "dtype": "float32",
          "group": "model",
          "filename": "weights.409.bin"
        },
        {
          "name": "weight410",
          "shape": [
            96
          ],
          "dtype": "float32",
          "group": "model",
          "filename": "weights.410.bin"
        },
        {
          "name": "weight411",
          "shape": [
            96
          ],
          "dtype": "float32",
          "group": "model",
          "filename": "weights.411.bin"
        },
        {
          "name": "weight412",
          "shape": [
            576
          ],
          "dtype": "float32",
          "group": "model",
          "filename": "weights.412.bin"
        },
        {
          "name": "weight413",
          "shape": [
            576
          ],
          "dtype": "float32",
          "group": "model",
          "filename": "weights.413.bin"
        },
        {
          "name": "weight414",
          "shape": [
            576
          ],
          "dtype": "float32",
          "group": "model",
          "filename": "weights.414.bin"
        },
        {
          "name": "weight415",
          "shape": [
            576
          ],
          "dtype": "float32",
          "group": "model",
          "filename": "weights.415.bin"
        },
        {
          "name": "weight416",
          "shape": [
            96
          ],
          "dtype": "float32",
          "group": "model",
          "filename": "weights.416.bin"
        },
        {
          "name": "weight417",
          "shape": [
            96
          ],
          "dtype": "float32",
          "group": "model",
          "filename": "weights.417.bin"
        },
        {
          "name": "weight418",
          "shape": [
            576
          ],
          "dtype": "float32",
          "group": "model",
          "filename": "weights.418.bin"
        },
        {
          "name": "weight419",
          "shape": [
            576
          ],
          "dtype": "float32",
          "group": "model",
          "filename": "weights.419.bin"
        },
        {
          "name": "weight420",
          "shape": [
            576
          ],
          "dtype": "float32",
          "group": "model",
          "filename": "weights.420.bin"
        },
        {
          "name": "weight421",
          "shape": [
            576
          ],
          "dtype": "float32",
          "group": "model",
          "filename": "weights.421.bin"
        },
        {
          "name": "weight422",
          "shape": [
            136
          ],
          "dtype": "float32",
          "group": "model",
          "filename": "weights.422.bin"
        },
        {
          "name": "weight423",
          "shape": [
            136
          ],
          "dtype": "float32",
          "group": "model",
          "filename": "weights.423.bin"
        },
        {
          "name": "weight424",
          "shape": [
            816
          ],
          "dtype": "float32",
          "group": "model",
          "filename": "weights.424.bin"
        },
        {
          "name": "weight425",
          "shape": [
            816
          ],
          "dtype": "float32",
          "group": "model",
          "filename": "weights.425.bin"
        },
        {
          "name": "weight426",
          "shape": [
            816
          ],
          "dtype": "float32",
          "group": "model",
          "filename": "weights.426.bin"
        },
        {
          "name": "weight427",
          "shape": [
            816
          ],
          "dtype": "float32",
          "group": "model",
          "filename": "weights.427.bin"
        },
        {
          "name": "weight428",
          "shape": [
            136
          ],
          "dtype": "float32",
          "group": "model",
          "filename": "weights.428.bin"
        },
        {
          "name": "weight429",
          "shape": [
            136
          ],
          "dtype": "float32",
          "group": "model",
          "filename": "weights.429.bin"
        },
        {
          "name": "weight430",
          "shape": [
            816
          ],
          "dtype": "float32",
          "group": "model",
          "filename": "weights.430.bin"
        },
        {
          "name": "weight431",
          "shape": [
            816
          ],
          "dtype": "float32",
          "group": "model",
          "filename": "weights.431.bin"
        },
        {
          "name": "weight432",
          "shape": [
            816
          ],
          "dtype": "float32",
          "group": "model",
          "filename": "weights.432.bin"
        },
        {
          "name": "weight433",
          "shape": [
            816
          ],
          "dtype": "float32",
          "group": "model",
          "filename": "weights.433.bin"
        },
        {
          "name": "weight434",
          "shape": [
            136
          ],
          "dtype": "float32",
          "group": "model",
          "filename": "weights.434.bin"
        },
        {
          "name": "weight435",
          "shape": [
            136
          ],
          "dtype": "float32",
          "group": "model",
          "filename": "weights.435.bin"
        },
        {
          "name": "weight436",
          "shape": [
            816
          ],
          "dtype": "float32",
          "group": "model",
          "filename": "weights.436.bin"
        },
        {
          "name": "weight437",
          "shape": [
            816
          ],
          "dtype": "float32",
          "group": "model",
          "filename": "weights.437.bin"
        },
        {
          "name": "weight438",
          "shape": [
            816
          ],
          "dtype": "float32",
          "group": "model",
          "filename": "weights.438.bin"
        },
        {
          "name": "weight439",
          "shape": [
            816
          ],
          "dtype": "float32",
          "group": "model",
          "filename": "weights.439.bin"
        },
        {
          "name": "weight440",
          "shape": [
            136
          ],
          "dtype": "float32",
          "group": "model",
          "filename": "weights.440.bin"
        },
        {
          "name": "weight441",
          "shape": [
            136
          ],
          "dtype": "float32",
          "group": "model",
          "filename": "weights.441.bin"
        },
        {
          "name": "weight442",
          "shape": [
            816
          ],
          "dtype": "float32",
          "group": "model",
          "filename": "weights.442.bin"
        },
        {
          "name": "weight443",
          "shape": [
            816
          ],
          "dtype": "float32",
          "group": "model",
          "filename": "weights.443.bin"
        },
        {
          "name": "weight444",
          "shape": [
            816
          ],
          "dtype": "float32",
          "group": "model",
          "filename": "weights.444.bin"
        },
        {
          "name": "weight445",
          "shape": [
            816
          ],
          "dtype": "float32",
          "group": "model",
          "filename": "weights.445.bin"
        },
        {
          "name": "weight446",
          "shape": [
            136
          ],
          "dtype": "float32",
          "group": "model",
          "filename": "weights.446.bin"
        },
        {
          "name": "weight447",
          "shape": [
            136
          ],
          "dtype": "float32",
          "group": "model",
          "filename": "weights.447.bin"
        },
        {
          "name": "weight448",
          "shape": [
            816
          ],
          "dtype": "float32",
          "group": "model",
          "filename": "weights.448.bin"
        },
        {
          "name": "weight449",
          "shape": [
            816
          ],
          "dtype": "float32",
          "group": "model",
          "filename": "weights.449.bin"
        },
        {
          "name": "weight450",
          "shape": [
            816
          ],
          "dtype": "float32",
          "group": "model",
          "filename": "weights.450.bin"
        },
        {
          "name": "weight451",
          "shape": [
            816
          ],
          "dtype": "float32",
          "group": "model",
          "filename": "weights.451.bin"
        },
        {
          "name": "weight452",
          "shape": [
            232
          ],
          "dtype": "float32",
          "group": "model",
          "filename": "weights.452.bin"
        },
        {
          "name": "weight453",
          "shape": [
            232
          ],
          "dtype": "float32",
          "group": "model",
          "filename": "weights.453.bin"
        },
        {
          "name": "weight454",
          "shape": [
            1392
          ],
          "dtype": "float32",
          "group": "model",
          "filename": "weights.454.bin"
        },
        {
          "name": "weight455",
          "shape": [
            1392
          ],
          "dtype": "float32",
          "group": "model",
          "filename": "weights.455.bin"
        },
        {
          "name": "weight456",
          "shape": [
            1392
          ],
          "dtype": "float32",
          "group": "model",
          "filename": "weights.456.bin"
        },
        {
          "name": "weight457",
          "shape": [
            1392
          ],
          "dtype": "float32",
          "group": "model",
          "filename": "weights.457.bin"
        },
        {
          "name": "weight458",
          "shape": [
            232
          ],
          "dtype": "float32",
          "group": "model",
          "filename": "weights.458.bin"
        },
        {
          "name": "weight459",
          "shape": [
            232
          ],
          "dtype": "float32",
          "group": "model",
          "filename": "weights.459.bin"
        },
        {
          "name": "weight460",
          "shape": [
            1392
          ],
          "dtype": "float32",
          "group": "model",
          "filename": "weights.460.bin"
        },
        {
          "name": "weight461",
          "shape": [
            1392
          ],
          "dtype": "float32",
          "group": "model",
          "filename": "weights.461.bin"
        },
        {
          "name": "weight462",
          "shape": [
            1392
          ],
          "dtype": "float32",
          "group": "model",
          "filename": "weights.462.bin"
        },
        {
          "name": "weight463",
          "shape": [
            1392
          ],
          "dtype": "float32",
          "group": "model",
          "filename": "weights.463.bin"
        },
        {
          "name": "weight464",
          "shape": [
            232
          ],
          "dtype": "float32",
          "group": "model",
          "filename": "weights.464.bin"
        },
        {
          "name": "weight465",
          "shape": [
            232
          ],
          "dtype": "float32",
          "group": "model",
          "filename": "weights.465.bin"
        },
        {
          "name": "weight466",
          "shape": [
            1392
          ],
          "dtype": "float32",
          "group": "model",
          "filename": "weights.466.bin"
        },
        {
          "name": "weight467",
          "shape": [
            1392
          ],
          "dtype": "float32",
          "group": "model",
          "filename": "weights.467.bin"
        },
        {
          "name": "weight468",
          "shape": [
            1392
          ],
          "dtype": "float32",
          "group": "model",
          "filename": "weights.468.bin"
        },
        {
          "name": "weight469",
          "shape": [
            1392
          ],
          "dtype": "float32",
          "group": "model",
          "filename": "weights.469.bin"
        },
        {
          "name": "weight470",
          "shape": [
            232
          ],
          "dtype": "float32",
          "group": "model",
          "filename": "weights.470.bin"
        },
        {
          "name": "weight471",
          "shape": [
            232
          ],
          "dtype": "float32",
          "group": "model",
          "filename": "weights.471.bin"
        },
        {
          "name": "weight472",
          "shape": [
            1392
          ],
          "dtype": "float32",
          "group": "model",
          "filename": "weights.472.bin"
        },
        {
          "name": "weight473",
          "shape": [
            1392
          ],
          "dtype": "float32",
          "group": "model",
          "filename": "weights.473.bin"
        },
        {
          "name": "weight474",
          "shape": [
            1392
          ],
          "dtype": "float32",
          "group": "model",
          "filename": "weights.474.bin"
        },
        {
          "name": "weight475",
          "shape": [
            1392
          ],
          "dtype": "float32",
          "group": "model",
          "filename": "weights.475.bin"
        },
        {
          "name": "weight476",
          "shape": [
            232
          ],
          "dtype": "float32",
          "group": "model",
          "filename": "weights.476.bin"
        },
        {
          "name": "weight477",
          "shape": [
            232
          ],
          "dtype": "float32",
          "group": "model",
          "filename": "weights.477.bin"
        },
        {
          "name": "weight478",
          "shape": [
            1392
          ],
          "dtype": "float32",
          "group": "model",
          "filename": "weights.478.bin"
        },
        {
          "name": "weight479",
          "shape": [
            1392
          ],
          "dtype": "float32",
          "group": "model",
          "filename": "weights.479.bin"
        },
        {
          "name": "weight480",
          "shape": [
            1392
          ],
          "dtype": "float32",
          "group": "model",
          "filename": "weights.480.bin"
        },
        {
          "name": "weight481",
          "shape": [
            1392
          ],
          "dtype": "float32",
          "group": "model",
          "filename": "weights.481.bin"
        },
        {
          "name": "weight482",
          "shape": [
            232
          ],
          "dtype": "float32",
          "group": "model",
          "filename": "weights.482.bin"
        },
        {
          "name": "weight483",
          "shape": [
            232
          ],
          "dtype": "float32",
          "group": "model",
          "filename": "weights.483.bin"
        },
        {
          "name": "weight484",
          "shape": [
            1392
          ],
          "dtype": "float32",
          "group": "model",
          "filename": "weights.484.bin"
        },
        {
          "name": "weight485",
          "shape": [
            1392
          ],
          "dtype": "float32",
          "group": "model",
          "filename": "weights.485.bin"
        },
        {
          "name": "weight486",
          "shape": [
            1392
          ],
          "dtype": "float32",
          "group": "model",
          "filename": "weights.486.bin"
        },
        {
          "name": "weight487",
          "shape": [
            1392
          ],
          "dtype": "float32",
          "group": "model",
          "filename": "weights.487.bin"
        },
        {
          "name": "weight488",
          "shape": [
            384
          ],
          "dtype": "float32",
          "group": "model",
          "filename": "weights.488.bin"
        },
        {
          "name": "weight489",
          "shape": [
            384
          ],
          "dtype": "float32",
          "group": "model",
          "filename": "weights.489.bin"
        },
        {
          "name": "weight490",
          "shape": [
            2304
          ],
          "dtype": "float32",
          "group": "model",
          "filename": "weights.490.bin"
        },
        {
          "name": "weight491",
          "shape": [
            2304
          ],
          "dtype": "float32",
          "group": "model",
          "filename": "weights.491.bin"
        },
        {
          "name": "weight492",
          "shape": [
            2304
          ],
          "dtype": "float32",
          "group": "model",
          "filename": "weights.492.bin"
        },
        {
          "name": "weight493",
          "shape": [
            2304
          ],
          "dtype": "float32",
          "group": "model",
          "filename": "weights.493.bin"
        },
        {
          "name": "weight494",
          "shape": [
            384
          ],
          "dtype": "float32",
          "group": "model",
          "filename": "weights.494.bin"
        },
        {
          "name": "weight495",
          "shape": [
            384
          ],
          "dtype": "float32",
          "group": "model",
          "filename": "weights.495.bin"
        },
        {
          "name": "weight496",
          "shape": [
            1536
          ],
          "dtype": "float32",
          "group": "model",
          "filename": "weights.496.bin"
        },
        {
          "name": "weight497",
          "shape": [
            1536
          ],
          "dtype": "float32",
          "group": "model",
          "filename": "weights.497.bin"
        }
      ]
    }
  ]
}